myCode/model.pth (torch, 831419 bytes, 8 tensors)

conv1.weight f4 [4, 1, 5, 5]
0	0x3ed0ef65	0.40807644
1	0x3ea9ebcd	0.33187714
2	0x3f307443	0.689274
3	0x3f1ce11b	0.61280984
4	0x3f0a2654	0.53964734
5	0x3eda9cbc	0.42697704
6	0x3f70396e	0.9383763
7	0x3f7c39c8	0.9852567
8	0x3f0b91cd	0.5451935
9	0x3f25eac8	0.6481137
10	0x3f245550	0.64192677
11	0x3f53b88d	0.8270348
12	0x3eb1f777	0.34759113
13	0x3f081245	0.5315288
14	0x3e6e42b2	0.2326763
15	0x3e4780db	0.19482748
16	0x3d2f951a	0.042866804
17	0x3e1f337f	0.15546988
18	0xbd63eaa5	-0.055643696
19	0xbdfe137f	-0.12406062
20	0x3d4ef2d7	0.05052456
21	0xbe3cc7b4	-0.18435556
22	0xbe71aae8	-0.23600352
23	0xbe9523e3	-0.29128942
24	0xbda522a6	-0.08063249
25	0xbe291ab5	-0.16514094
26	0xbdc326a0	-0.095288515
27	0x3eb660e3	0.35620794
28	0x3bec3f52	0.007209697
29	0x3dbdba1a	0.09264012
30	0xbc506682	-0.012719752
31	0x3df11805	0.117721595
32	0x3f063bf3	0.52435225
33	0x3dec108f	0.11526596
34	0x3e130b45	0.14359768
35	0x3e6137bc	0.21993917
36	0x3ef1ca75	0.47224775
37	0x3ed1cec2	0.40978056
38	0x3ebc94ea	0.36832362
39	0xbe566522	-0.20937017
40	0x3d7940ca	0.060852803
41	0x3ea73fb9	0.32665804
42	0x3ec61648	0.38688874
43	0x3e82c7fb	0.25543198
44	0x3d5a01fa	0.05322454
45	0x3ebc03df	0.36721703
46	0x3f1829f3	0.5943901
47	0x3f0ca058	0.54932165
48	0x3e22d1ef	0.15900396
49	0x3e5078d4	0.20358592
50	0x3e30a755	0.17251332
51	0xbe7fcd1b	-0.24980585
52	0xbe784a51	-0.242471
53	0xbe8e78d7	-0.27826568
54	0xbd8f03a7	-0.069831185
55	0x3de6b5f0	0.112651706
56	0x3cf89b3d	0.03034746
57	0xbe0048ed	-0.12527819
58	0x3e678d8a	0.22612587
59	0xbcc3cff5	-0.023902873
60	0x3e402bca	0.18766704
61	0x3ed8dd80	0.4235649
62	0x3eccd4f3	0.40006217
63	0x3e419762	0.18905404
64	0x3de3de72	0.111264125
65	0x3e16bacd	0.14719696
66	0x3e369082	0.17828563
67	0x3e6568bd	0.22403236
68	0x3ea0c8ca	0.3140319
69	0x3dc0f036	0.094208166
70	0xbe16049a	-0.14650193
71	0xbe9f6e73	-0.31138954
72	0xbea2b8c5	-0.31781593
73	0xbe68505b	-0.22686903
74	0xbd4f3bee	-0.050594263
75	0xbae0379b	-0.0017106415
76	0x3ef974eb	0.48722014
77	0x3f076ebf	0.5290336
78	0x3eb4d4a4	0.35318482
79	0x3e3e938d	0.18610974
80	0x3eadf443	0.3397542
81	0x3f2639bb	0.6493184
82	0x3eebfa87	0.46089575
83	0x3dde25d5	0.1084706
84	0x3d9176f6	0.07102768
85	0x3dc861ee	0.097843036
86	0x3eb755a5	0.3580753
87	0x3f2a741d	0.66583425
88	0x3dcf05bc	0.101085156
89	0xbdc2e7dc	-0.0951688
90	0x3e3588ff	0.17728041
91	0x3eccd1d2	0.4000383
92	0x3ecc21b0	0.39869452
93	0x3ea4987b	0.32147583
94	0x3e6feaaa	0.23429361
95	0x3e89c33c	0.26906765
96	0x3e959ff6	0.29223603
97	0x3e4bf3f6	0.19917282
98	0x3d828c5b	0.06374427
99	0x3d56fd00	0.052487373

conv1.bias f4 [4]
0	0x3bd56fd8	0.006513577
1	0x3caadd1a	0.020857383
2	0x3d792e8b	0.060835402
3	0x3aaaee47	0.0013040983

conv2.weight f4 [8, 4, 5, 5]
0	0xbe24d586	-0.16097078
1	0xbe13e7d6	-0.14443907
2	0x3d3a08da	0.045418598
3	0x3dcae688	0.099072516
4	0xbca64b81	-0.020299675
5	0xbe31978d	-0.17342968
6	0xbd0ac608	-0.033880264
7	0x3e18b50e	0.14912817
8	0xbccff87c	-0.025387041
9	0xbe5d5cac	-0.21617383
10	0xbd9f0ce5	-0.07766131
11	0xbcb00868	-0.021488383
12	0x3d21be52	0.039488144
13	0x3bae22ab	0.0053141913
14	0xbdadbeb6	-0.08483641
15	0xbd2dc795	-0.042426664
16	0x3da38a84	0.07985404
17	0xbd981b1e	-0.07427047
18	0xbe263adb	-0.16233389
19	0x3cfebdfe	0.031096455
20	0x3d4401e5	0.04785337
21	0x3de0990f	0.109666936
22	0xbd90f48d	-0.07077894
23	0xbd79ad0f	-0.060956057
24	0xbc9e3655	-0.019313017
25	0xbdd9d36b	-0.10636028
26	0x3d6f65c5	0.058446664
27	0x3ddae734	0.1068863
28	0x3da100a7	0.078614525
29	0xbd982589	-0.07429034
30	0x3cf55db8	0.029951915
31	0x3cb45cce	0.022016909
32	0x3d7cc149	0.06170777
33	0x3d96143d	0.07328079
34	0xbe09648c	-0.13417262
35	0xbde6de4a	-0.11272867
36	0x3ce9dfb2	0.028549049
37	0x3dfc0622	0.12305857
38	0xbdb7b603	-0.08970263
39	0x3b449b31	0.0029999728
40	0x3c355eb4	0.011069942
41	0x3e1ae851	0.15127684
42	0xbda4dc92	-0.08049883
43	0x3b2d726d	0.0026465908
44	0x3cc74f75	0.02432988
45	0xbcaf0216	-0.0213633
46	0xbd4358c5	-0.04769208
47	0x3cf416fe	0.02979612
48	0xbd105545	-0.03523757
49	0x3da3309a	0.079682544
50	0xbcebf589	-0.028803604
51	0x3c2c5eef	0.010520681
52	0xbde721a6	-0.11285715
53	0x3cf8c969	0.030369477
54	0xbd7e5a62	-0.062097915
55	0xbd09196e	-0.033471517
56	0x3da0ae86	0.07845788
57	0x3c698cf4	0.014254797
58	0x3ccc07f0	0.024906129
59	0xbdf2271b	-0.11823865
60	0x3d59af3e	0.05314564
61	0x3d0a6acd	0.03379326
62	0xbdbdc699	-0.09266395
63	0x3d35454d	0.044255544
64	0x3d59f54a	0.05321244
65	0xbd9875e1	-0.074443586
66	0x3c86b164	0.016442008
67	0x3da58c6e	0.080834255
68	0x3d94cf1d	0.07266066
69	0x3cd5ac70	0.026083201
70	0xbd8c30e5	-0.068452634
71	0xbc972b97	-0.018453402
72	0x3deb484a	0.114883974
73	0x3cc5f952	0.024166737
74	0x3d6cc2e6	0.057803057
75	0xbe0ece3b	-0.13945858
76	0xbdea20e1	-0.114320524
77	0x3e1fbbd7	0.15598999
78	0x3e17e2e1	0.14832641
79	0x3d7ca548	0.061681062
80	0x3c477d9f	0.0121759465
81	0x3c265d38	0.010154061
82	0x3dc1a8af	0.09456002
83	0xbcb021dc	-0.02150052
84	0xbe01d3e9	-0.12678494
85	0xbd398a3d	-0.04529785
86	0x3cb42222	0.021988932
87	0x3e47bd68	0.19505847
88	0xbe0cdf71	-0.13757111
89	0xbd8d80d4	-0.06909338
90	0x3ceb4d3e	0.028723355
91	0x3e00ab37	0.12565313
92	0x3d3e7acf	0.04650384
93	0x3c9a3c01	0.01882744
94	0x3cf1ef83	0.029533153
95	0xbd5ded40	-0.054181337
96	0x3d24495c	0.040109023
97	0x3ce8aaf3	0.028401827
98	0x3d16e9e9	0.036844168
99	0x3ced562c	0.028971754
100	0xbcb61a09	-0.022229211
101	0xbc2be1c4	-0.010490838
102	0xbda5544e	-0.080727205
103	0xbe26c330	-0.16285396
104	0xbe2cfca3	-0.16893248
105	0x3e162f1f	0.14666413
106	0xbe22f619	-0.15914191
107	0xbe62da88	-0.22153676
108	0xbe274d25	-0.16338022
109	0x3e2e4ab9	0.17020692
110	0xbdbe6b51	-0.09297813
111	0xbeb8f430	-0.361238
112	0xbe284973	-0.16434269
113	0x3e31df6d	0.17370386
114	0x3e608186	0.2192441
115	0xbe6bbf0d	-0.23022099
116	0xbe491a9b	-0.19639055
117	0x3e771355	0.24128468
118	0x3eddd6fa	0.43328077
119	0x3e22de4b	0.1590511
120	0x3caff4c0	0.02147901
121	0x3e448b19	0.19193687
122	0x3ebe40be	0.3715877
123	0x3e492f98	0.19647062
124	0xbe63ced2	-0.22246864
125	0xbcc890dd	-0.024483139
126	0xbda1b419	-0.07895679
127	0xbe1a4da1	-0.15068676
128	0xbe2d3ebd	-0.16918464
129	0xbc1683ad	-0.009186667
130	0x3d5c7854	0.05382569
131	0xbe12c57a	-0.14333144
132	0xbe2c9ae9	-0.16855969
133	0x3e1ae55a	0.15126553
134	0x3e5311d7	0.20612274
135	0xbe36cd3f	-0.17851733
136	0xbdca9669	-0.0989197
137	0x3e31d65a	0.17366925
138	0x3e326680	0.17421913
139	0x3d07d955	0.03316625
140	0xbd1d3065	-0.03837623
141	0x3d97214f	0.073794
142	0x3e68dfbf	0.22741602
143	0x3dd271ad	0.10275588
144	0xbd89d618	-0.06730288
145	0x3d6795d4	0.05653937
146	0x3e218316	0.15772662
147	0xbd680a30	-0.05665034
148	0xbe145252	-0.14484528
149	0xbe2f2fd9	-0.17108096
150	0x3d0f14f1	0.03493208
151	0x3d0aea6e	0.033914976
152	0xbc04a269	-0.008095362
153	0x3b9cfb9f	0.0047907378
154	0x3d31dd5e	0.043424003
155	0x3cf30a75	0.029668072
156	0xbd31d845	-0.04341914
157	0xbdf67b50	-0.12035239
158	0xbd1b7cf7	-0.037960973
159	0xbd6c44b8	-0.057682723
160	0x3a9308c7	0.0011217826
161	0xbdfa85c5	-0.12232546
162	0x3cb3e40f	0.021959333
163	0x3d9c5037	0.07632487
164	0xbcc66cd5	-0.024221817
165	0xbdb49e8d	-0.08819304
166	0x3d9ce7b9	0.07661385
167	0xbbd56554	-0.0065123234
168	0x3c9f7ac9	0.019467728
169	0x3dfb2675	0.122631945
170	0xbd695ce9	-0.05697337
171	0xbc93435b	-0.017976454
172	0x3cf51970	0.029919356
173	0xbdbd6aa0	-0.09248853
174	0x3de91532	0.11380996
175	0x3c5ed036	0.013599446
176	0xbd47aa24	-0.048746243
177	0xbd4cdaab	-0.050013226
178	0xbd262e5f	-0.040571567
179	0x3cac7b5a	0.021054912
180	0xbda689bc	-0.081317395
181	0xbe6cceff	-0.23125838
182	0xbe75a7e9	-0.23989834
183	0x3d23319a	0.039842226
184	0x3ddfafc8	0.109221995
185	0xbd865020	-0.065582514
186	0xbe16fc83	-0.14744763
187	0xbdfbd650	-0.12296736
188	0x3e230b8e	0.15922377
189	0x3e5b3304	0.2140618
190	0xbe770efd	-0.24126811
191	0x3c4a413d	0.012344656
192	0x3dc7037a	0.0971746
193	0x3eab5ed8	0.33470798
194	0x3b68ec3b	0.0035541195
195	0x3da24e39	0.07925076
196	0x3e2b61d5	0.16736539
197	0x3e78d90d	0.24301548
198	0x3e03799c	0.12839359
199	0xbd5689a2	-0.05237735
200	0x3dd7f816	0.105453655
201	0x3e1df386	0.15424928
202	0x3de9a2c3	0.114079975
203	0xbd9d79ad	-0.076892234
204	0x3d4a4548	0.049382478
205	0xbdc403ad	-0.095710136
206	0xbe0b14f8	-0.13582218
207	0xbdff6bbf	-0.12471723
208	0xbcb95e03	-0.022627836
209	0xbd871180	-0.06595135
210	0xbd05f67c	-0.03270577
211	0xbd5bc7d5	-0.05365737
212	0xbdcb9939	-0.09941334
213	0x3c6a3832	0.014295625
214	0xbd9ecff6	-0.07754509
215	0x3d7ff459	0.062488887
216	0xbd8f2878	-0.06990141
217	0xbdba5244	-0.09097722
218	0xbd630ea3	-0.05543388
219	0xbd98153e	-0.074259266
220	0x3de8768f	0.11350738
221	0x3c919fca	0.017776389
222	0xbd44a705	-0.048010845
223	0x3d7bd502	0.061482437
224	0xbd270ce3	-0.040783774
225	0xbaa39732	-0.0012480973
226	0x3d3451b6	0.044023238
227	0x3ac80ebb	0.0015263179
228	0x3d05d74e	0.032676034
229	0x3d547773	0.05187173
230	0xbd48caee	-0.049021654
231	0xbde9527c	-0.11392686
232	0xbd011f27	-0.03152385
233	0xbbd3b5d7	-0.006460886
234	0xbcc4b6f3	-0.024013018
235	0xbd90591c	-0.07048246
236	0x3d679bb3	0.05654497
237	0x3d60e2fc	0.05490397
238	0xbd077d67	-0.033078577
239	0xbd87e50c	-0.06635484
240	0x3daa2ad1	0.08308948
241	0x3d638fba	0.05555699
242	0x3d94fb2b	0.07274469
243	0xbd933c1a	-0.07189198
244	0x3d7bbe29	0.061460648
245	0x3d14f838	0.036369532
246	0x3d90aa19	0.070636936
247	0x3b8391c8	0.004015181
248	0xbd8e0094	-0.06933704
249	0xbdb90260	-0.09033656
250	0xbd89f203	-0.06735613
251	0x3c99709b	0.018730452
252	0xbbfd6000	-0.0077323914
253	0xbbf22894	-0.007390091
254	0xbdb6235a	-0.088934615
255	0xbd9f89b0	-0.07789934

conv2.bias f4 [8]
0	0x3e22427a	0.15845671
1	0x3c880fed	0.016609157
2	0x3d8a7f7c	0.06762597
3	0xbd95c075	-0.07312099
4	0xbc6ac18d	-0.014328373
5	0xbda251cc	-0.07925758
6	0xbcb90d62	-0.02258939
7	0xbd6bae42	-0.057539232

fc1.weight f4 [512, 392]
0	0x3cb77c25	0.022398064
1	0xbd0e956d	-0.034810472
2	0x3bf1cfea	0.0073795216
3	0x3d3d5173	0.046220254
4	0x3d001499	0.031269643
5	0xba806477	-0.0009795566
6	0xbcdf086d	-0.027225697
7	0x3c1400bb	0.009033377
8	0x3d396f20	0.045271993
9	0xbd0a967f	-0.03383493
10	0xbd535658	-0.051596016
11	0x3ceff774	0.0292928
12	0x3c53f8ae	0.012937708
13	0x3cb9f710	0.022700816
14	0xbc9f7deb	-0.019469222
15	0xbcb1b609	-0.021693246
16	0xbbe34b29	-0.00693645
17	0xbd6988ef	-0.057015356
18	0x3cff108d	0.031135822
19	0x3c982ff8	0.01857756
20	0xbcc485fa	-0.023989666
21	0xbd148595	-0.036260206
22	0xbcbe099c	-0.023197941
23	0x3bdd6cd5	0.0067573586
24	0x3c904082	0.017608885
25	0x3c922f2f	0.017844765
26	0xbcc9ca8f	-0.02463272
27	0xbcc6b7ad	-0.024257505
28	0x3d44f6a7	0.04808679
29	0xbcc8892a	-0.024479467
30	0x3d2ffe9a	0.042967416
31	0xbb8a94de	-0.004229172
32	0xbb9be5aa	-0.0047576027
33	0x3d05a410	0.032627165
34	0xbcb6ccb4	-0.022314407
35	0x3d27f93b	0.04100917
36	0x3c9baad2	0.019002352
37	0x3b924bdd	0.00446461
38	0xbd710eae	-0.05885189
39	0x3d0c6afe	0.034281723
40	0x3c1b5361	0.009480328
41	0x3cbd9ea0	0.023146927
42	0x38b67449	8.700096e-05
43	0xbd427bc9	-0.047481332
44	0xbcd4d101	-0.025978567
45	0xbd0ca2db	-0.034335
46	0xbd209ecd	-0.039213944
47	0xbcd85b3f	-0.026410697
48	0xbc8e19b7	-0.017346246
49	0x3d235faf	0.039886173
50	0x3d466158	0.048432678
51	0xbd275977	-0.040856805
52	0xbd874878	-0.06605619
53	0x3c73879e	0.014863877
54	0x3c9b8d6f	0.01898834
55	0x3a4fa6b6	0.0007921265
56	0x3cc0025a	0.023438621
57	0x3c31f349	0.010861226
58	0xbd1ce911	-0.038308207
59	0x3c02a51a	0.007973934
60	0x3b82bccf	0.003989793
61	0xbc9f3cc2	-0.019438151
62	0x3d2caa81	0.042154793
63	0xbd1242b6	-0.03570815
64	0xbd485325	-0.048907418
65	0xbc9a7eed	-0.018859351
66	0x3c8e6a59	0.017384695
67	0xbb410e4b	-0.0029457982
68	0x3cec3664	0.02883453
69	0x3d3be686	0.04587414
70	0x3bd685c9	0.00654671
71	0x3aeb4855	0.0017950634
72	0x3c98895e	0.01862019
73	0xbc0c4b56	-0.008562883
74	0xbd381dac	-0.044950172
75	0xbd235755	-0.03987821
76	0x3b82bf2e	0.0039900756
77	0x3c75b98e	0.014997853
78	0x3cce8179	0.025208222
79	0xbcb7e625	-0.022448609
80	0x3cc4a639	0.024005042
81	0x3d2b4f2b	0.041823547
82	0x3b54c87d	0.0032468133
83	0x3b1c7708	0.002387466
84	0xbd85c326	-0.06531362
85	0xbd3fd70d	-0.046835948
86	0xbd8773a5	-0.06613854
87	0x3c458ef2	0.012058007
88	0x3b544df4	0.0032395096
89	0xbcb6a633	-0.022296047
90	0xba8abbc0	-0.0010584518
91	0xbd01049a	-0.03149853
92	0xbd9553ce	-0.07291375
93	0xbd4acaec	-0.049509928
94	0xbd2283db	-0.03967653
95	0xbb2cbc76	-0.0026357449
96	0xbbf711ff	-0.007539987
97	0x3d455689	0.04817823
98	0x3d486a98	0.04892978
99	0xbd2670b4	-0.040634826
100	0x3d50c751	0.050971333
101	0xbd357a5b	-0.04430614
102	0x3d0326b1	0.03201932
103	0x3d1d6f1a	0.038436033
104	0x38f6f3d2	0.00011775609
105	0x3c30ec72	0.01079856
106	0xbd2beb20	-0.04197228
107	0xbcefe86e	-0.029285636
108	0x3c123c50	0.008925512
109	0xbd051eb9	-0.032500003
110	0xbd47728a	-0.048693217
111	0x39ce100b	0.00039303335
112	0xbcf6b4df	-0.030115543
113	0x3d0e5f8d	0.034759093
114	0xbd04fc68	-0.032467276
115	0xbce3ce78	-0.027808413
116	0xbc140e31	-0.009036587
117	0x3d5cb658	0.053884834
118	0x3d22935f	0.039691325
119	0xbcac45fe	-0.021029469
120	0xbd2d607b	-0.04232834
121	0x3b7397d7	0.003716936
122	0xba3694f0	-0.00069649424
123	0x3d511aab	0.051050823
124	0xbc93da5f	-0.018048463
125	0x3c8b6453	0.017015612
126	0x3c331c04	0.010931972
127	0xbc9c958b	-0.019114276
128	0x3cdd1bef	0.026990859
129	0x3d17e311	0.03708178
130	0xbd09af57	-0.033614483
131	0xbd33501a	-0.043777563
132	0xbd145182	-0.036210544
133	0xbd479a94	-0.0487314
134	0x3d086c0a	0.03330616
135	0xbcda6697	-0.026660247
136	0xbb1338d7	-0.00224643
137	0x3bfcabe5	0.007710921
138	0x3d279193	0.040910315
139	0x3d2ac5fb	0.041692715
140	0x3b7ae5f1	0.0038284028
141	0x3d47bc3f	0.04876351
142	0xbc49943b	-0.012303407
143	0x3d66531b	0.0562316
144	0x3d5a6366	0.05331745
145	0xbbff1889	-0.0077849072
146	0xbd1e836a	-0.038699545
147	0xbba72e10	-0.0051019266
148	0x3d48e92d	0.0490505
149	0x3d4db748	0.05022362
150	0x3d1856d4	0.03719218
151	0xbccc7fbe	-0.024963256
152	0xba279d78	-0.0006394009
153	0xbb4f5e7a	-0.0031642006
154	0x3ca4cab3	0.020116186
155	0xbd12e2ca	-0.035860814
156	0x3d10c2f2	0.035342164
157	0x3d1b73ea	0.03795234
158	0x3a9d6cf3	0.0012010619
159	0x3af443e9	0.0018635961
160	0x3be19a3f	0.0068848426
161	0x3ce053d8	0.02738373
162	0xbbe2ab3f	-0.006917387
163	0x3bf66754	0.007519642
164	0x3d52db6a	0.05147878
165	0x3c78b2db	0.015179361
166	0x3d0a52cb	0.033770364
167	0x3c7df4c6	0.015500253
168	0x3c7c4215	0.015396615
169	0x3cbdae18	0.023154303
170	0x3cae860c	0.021304153
171	0x3d086eb2	0.033308692
172	0x3d06229e	0.032747857
173	0xbd258505	-0.04041006
174	0xba17df37	-0.00057934545
175	0x3c7ebb72	0.01554762
176	0xbc1801dc	-0.009277787
177	0xbd274e97	-0.040846433
178	0x3d827309	0.063695975
179	0xbc6b7558	-0.014371239
180	0xbb888ecc	-0.0041674133
181	0x3c97771b	0.018489411
182	0xbd0ed885	-0.034874458
183	0x3bdd492e	0.0067531085
184	0xba58beb2	-0.0008268162
185	0x3cf9e7f9	0.030506121
186	0xbd766605	-0.060155887
187	0xbd1c2826	-0.038124226
188	0xbd6ff95b	-0.058587413
189	0x3d1ca5ad	0.03824394
190	0xbbc6b406	-0.006063941
191	0xbd89665d	-0.06708977
192	0xbc2078f5	-0.009794463
193	0xbd34c8c4	-0.044136778
194	0xbb839d9f	-0.0040165926
195	0xbc823b44	-0.0158974
196	0xbba440ec	-0.005012622
197	0xbc708278	-0.014679544
198	0x3d42fbb6	0.04760333
199	0x3d4063f3	0.04697032
200	0x3a332d76	0.00068350823
201	0x3c27ac26	0.0102339145
202	0xbd31cbaf	-0.04340714
203	0x3cde9ec5	0.027175317
204	0xb9c9f335	-0.0003851891
205	0x3cb6b7a6	0.022304367
206	0x3d2a8bf6	0.041637383
207	0xbd0743cb	-0.033023637
208	0x3d1645f3	0.036687803
209	0xbcc1f9b4	-0.023678638
210	0x3d2d8ad6	0.042368732
211	0xbc9a6674	-0.018847682
212	0x3c139995	0.009008785
213	0xbd8b1338	-0.06790775
214	0x3d2eefe9	0.042709265
215	0xbd38d365	-0.045123477
216	0x3d1c1475	0.038105447
217	0x3cd76438	0.026292905
218	0x3c4edf7d	0.012626526
219	0xbd27faea	-0.041010775
220	0x3cde5e7f	0.027144669
221	0xbc1ae01b	-0.009452845
222	0xbd690d7e	-0.056897633
223	0xbcfb34f8	-0.030664906
224	0xbd2b9bcc	-0.041896626
225	0x3c805631	0.0156661
226	0xbd3ca891	-0.046059195
227	0xbd13c73f	-0.036078688
228	0xbc1ab470	-0.009442434
229	0x3cd3924a	0.025826592
230	0xbd314d10	-0.043286383
231	0xbc9ae0aa	-0.018905956
232	0xbce73fb4	-0.028228618
233	0x3cc6e3b5	0.024278501
234	0x3c49c680	0.0123153925
235	0xbb0f5a06	-0.0021873727
236	0x3d660304	0.05615522
237	0xbd533377	-0.051562753
238	0xbbea4332	-0.0071491236
239	0x3d1a0b36	0.037608348
240	0x3d592cca	0.05302123
241	0x3bfccb84	0.0077146906
242	0xbc8b4946	-0.017002713
243	0xbbf8b478	-0.007589873
244	0xbcd9d89c	-0.026592545
245	0xbd2b244f	-0.041782673
246	0x3cf795b9	0.03022276
247	0x3c9c4910	0.019077808
248	0x3b89abd1	0.0042013903
249	0xbc34a9b7	-0.011026791
250	0x3ce95b97	0.028486056
251	0x3d115942	0.035485514
252	0xbd1ede65	-0.03878631
253	0xbcc26e44	-0.02373422
254	0x3b66347d	0.00351265
255	0x3a4a86d0	0.0007725777

fc1.bias f4 [512]
0	0xbc7bc224	-0.015366111
1	0xbd2fc493	-0.042912077
2	0x3d379676	0.044821225
3	0xbd175eb8	-0.036955565
4	0x3d474aec	0.048655435
5	0x3d5db9d0	0.054132283
6	0x3d0113b2	0.031512924
7	0x3d3e55bf	0.046468493
8	0xbb86d73a	-0.0041150125
9	0x3d3f1079	0.04664657
10	0xbd3964c2	-0.045262106
11	0xbd0c4598	-0.034246057
12	0xba1ff6a4	-0.0006102121
13	0x3b447845	0.0029978913
14	0xbc13fc32	-0.009032296
15	0x3cee4413	0.029085195
16	0x3d43cf2f	0.047805008
17	0x3c96a49d	0.01838904
18	0xbbd80bd9	-0.006593209
19	0x3c514a06	0.012773996
20	0x3d51aa6f	0.05118793
21	0xbccc03f1	-0.024904223
22	0x3d0e8ada	0.034800388
23	0xbcd921b4	-0.026505329
24	0x3d3a5379	0.045489762
25	0x3c2a0d87	0.010379202
26	0xbcbcfac5	-0.023068795
27	0xbc891ab3	-0.016736364
28	0x3d10edf6	0.035383187
29	0xbd079ab2	-0.033106513
30	0xbc58f5ec	-0.013242226
31	0xbc241120	-0.010013849
32	0xbb7d1759	-0.0038618653
33	0x3cf9b747	0.030482901
34	0x3d25c92b	0.04047505
35	0xbc50d090	-0.012745038
36	0x3d40f184	0.047105327
37	0x3c65fc0f	0.014037146
38	0x3d1e9a4a	0.03872136
39	0xbc1fb50c	-0.009747755
40	0xbbd1e769	-0.00640576
41	0xbd2b48ae	-0.04181736
42	0x3c0d0850	0.008607939
43	0x3d2201f6	0.03955265
44	0x3c96b674	0.018397547
45	0xbc50a7b2	-0.012735294
46	0xbd140f97	-0.03614768
47	0x3b85b4fc	0.004080413
48	0xbc90e6ba	-0.017688144
49	0xbccd9985	-0.025097618
50	0xbd2e02d1	-0.042483155
51	0x3d0c9294	0.034319475
52	0xbccefa07	-0.025265707
53	0x3d3ec2a2	0.046572335
54	0xbd147851	-0.036247555
55	0xbc4d2367	-0.012520648
56	0xbcbbc7a6	-0.022922348
57	0x3cdabb2c	0.026700579
58	0x3bf503ab	0.007477244
59	0x3d5cbe40	0.053892374
60	0x3c1b387d	0.009473917
61	0x3d454b1a	0.048167326
62	0x3d3c5123	0.045975816
63	0xbb1784d3	-0.002311994
64	0x39b87e03	0.000351891
65	0x3cddd83f	0.027080653
66	0xbc758051	-0.014984206
67	0xba8e4d1f	-0.0010856724
68	0x3bca6ae6	0.006177294
69	0xbd57ce3b	-0.05268691
70	0xbbc99c14	-0.006152639
71	0xbd250e95	-0.04029711
72	0x3d0c7311	0.034289423
73	0xbd4e39f9	-0.050348256
74	0x3d08707e	0.033310406
75	0xbc8b3e14	-0.016997375
76	0x3c8c7750	0.017146736
77	0xbbffb8d5	-0.007804016
78	0x3c48d0a3	0.012256774
79	0x3d388d7e	0.045056812
80	0xb8f675ac	-0.00011752112
81	0xbd0fc6b2	-0.0351016
82	0xbc2734d9	-0.010205471
83	0xbd486f6d	-0.04893439
84	0x3bbad614	0.0057017896
85	0xbc3fc18a	-0.011703858
86	0x3bf3276c	0.007420471
87	0xbc32717a	-0.010891313
88	0xbb8c0c29	-0.0042739105
89	0xbc3404e0	-0.01098749
90	0xbc169584	-0.009190921
91	0xbd269bb5	-0.040675838
92	0x3cb7f388	0.022454992
93	0x3d4d2fa8	0.050094277
94	0xbb847340	-0.004042059
95	0x3d5488b8	0.051888198
96	0xb97ba03a	-0.00023996914
97	0xbcc9f42f	-0.024652569
98	0xbd159b6a	-0.036525168
99	0x3d4b5d84	0.04964973
100	0x3d2042e5	0.039126296
101	0x3d2b78d2	0.04186327
102	0xbd100b0d	-0.03516679
103	0x3d214316	0.03937062
104	0x3d2664bd	0.040623415
105	0xbb8f2fc7	-0.004369709
106	0x3cc96890	0.024585992
107	0x3c87a2e4	0.016557164
108	0xbce00a06	-0.02734853
109	0xbce9d395	-0.028543273
110	0x3c0cd215	0.008595009
111	0x3d4e7853	0.05040772
112	0xbbcb95da	-0.006212932
113	0xbbc36f0b	-0.005964165
114	0xbc8a0591	-0.016848357
115	0x3d325b2d	0.043543983
116	0xbd24b781	-0.040214065
117	0xbd39ba5a	-0.045343734
118	0xbd0b5ac8	-0.034022123
119	0x3c62348f	0.013806476
120	0xbc8f7cbb	-0.01751553
121	0x3c4d1730	0.012517735
122	0xbc444378	-0.011978976
123	0x3d146cf1	0.036236707
124	0xbd30a4b0	-0.04312581
125	0x3d5b4239	0.05352995
126	0x3cdacdbf	0.026709436
127	0x3c133ffa	0.008987421
128	0xbd2ebb63	-0.042659175
129	0xbc8d2edc	-0.017234258
130	0xbcc457e9	-0.0239677
131	0x3c73821d	0.014862564
132	0xbd256045	-0.040375013
133	0x3d5475f7	0.051870313
134	0x3d30ae69	0.04313508
135	0xbd36d731	-0.044638816
136	0xbc93b033	-0.018028354
137	0xbd07a7dd	-0.03311907
138	0x3d340ee3	0.04395951
139	0xbc83529d	-0.016030604
140	0xbd0950e8	-0.033524424
141	0xbbd2950a	-0.0064264582
142	0x3d3004eb	0.04297344
143	0x3d5de291	0.05417115
144	0xbcc52a92	-0.02406815
145	0xbac59ceb	-0.0015076672
146	0x3c92cbf4	0.017919518
147	0xbc767786	-0.015043145
148	0x3d17b2c3	0.037035715
149	0xbd17c98d	-0.03705745
150	0xbcb4118f	-0.021981029
151	0xbd20d964	-0.03926982
152	0x3c8e9ab9	0.017407762
153	0x3c153303	0.0091064
154	0xbd21dae8	-0.039515406
155	0xbd1a3ea2	-0.037657388
156	0x3d3c74b5	0.046009738
157	0xbab9ac84	-0.0014165794
158	0xbc718563	-0.0147412745
159	0x3c3a2101	0.011360408
160	0x3d0c3a62	0.034235366
161	0xbd23c209	-0.03997997
162	0x3b86f91a	0.0041190507
163	0x3c9840b7	0.018585546
164	0x3d40556d	0.04695647
165	0x3aea44c7	0.001787328
166	0x3c9684c1	0.018373849
167	0xbd14d407	-0.036335018
168	0xbc9790bb	-0.01850163
169	0x3d0db7d4	0.03459914
170	0xbbc15938	-0.0059005283
171	0xbd1e9b20	-0.038722157
172	0x3cbd2651	0.02308956
173	0xbc2137f0	-0.009839997
174	0xbd13c3e8	-0.036075503
175	0x3d4fd447	0.050739553
176	0xbcc2d601	-0.023783686
177	0x3cdbb9ef	0.026822058
178	0x3d27d17a	0.040971257
179	0x3bbadbd4	0.005702475
180	0x3d38ba4c	0.04509954
181	0x3a2d1ecf	0.0006604017
182	0x3c5334de	0.0128910225
183	0x3c958cee	0.018255677
184	0xbd3f8d8f	-0.04676586
185	0x3d27e25c	0.040987357
186	0xbc2090c1	-0.009800137
187	0x3d0d41da	0.03448663
188	0xbd1592e7	-0.03651705
189	0xbd2fc5c8	-0.04291323
190	0x3ce5bd21	0.028044285
191	0xbc63267b	-0.013864155
192	0x3d0e3b77	0.03472468
193	0x3ba13455	0.0049195685
194	0xbd395264	-0.04524459
195	0x3cf50ce0	0.029913366
196	0x3d3f5f24	0.046721593
197	0xbc189ff5	-0.0093154805
198	0x3c92f2e1	0.01793808
199	0xbca96d1f	-0.020681916
200	0x3cd786b5	0.02630935
201	0xbd27e332	-0.040988155
202	0x3c5f75d7	0.013638935
203	0xbc7e479d	-0.015520004
204	0xbd29aad4	-0.04142268
205	0x3c4c34d3	0.012463766
206	0x3b622524	0.0034507
207	0xbd3b7600	-0.04576683
208	0xbd2d5591	-0.04231793
209	0xbce83b91	-0.028348716
210	0xbc8db56c	-0.017298423
211	0x3d3c7f3b	0.046019774
212	0x3be6e6e1	0.007046566
213	0xbcbef809	-0.023311632
214	0x3b511660	0.0031904206
215	0xbd030c4a	-0.03199414
216	0xbc32f0d7	-0.0109216785
217	0x3c18a402	0.009316446
218	0xbd0291a9	-0.031877194
219	0x3ab9ad18	0.0014165966
220	0xbd013bff	-0.031551357
221	0xbd19cbf2	-0.037548013
222	0x3cfa070e	0.030520942
223	0x3d43e958	0.047829956
224	0x3b9758dd	0.0046187476
225	0x3d3e6ddb	0.046491485
226	0x3d4b4dee	0.049634866
227	0x3d130833	0.03589649
228	0x3d1eed98	0.038800806
229	0xbd1a3056	-0.037643753
230	0xbceacb66	-0.028661441
231	0xbcc96c05	-0.02458764
232	0xbd149150	-0.036271393
233	0x3d33e791	0.04392201
234	0x3b899458	0.004198592
235	0xbb2c93ca	-0.0026333206
236	0x3ca38d3c	0.019964807
237	0xbd204ac6	-0.03913381
238	0xbd301790	-0.04299122
239	0xbcd0cd16	-0.025488418
240	0x3d4f0a1b	0.050546747
241	0x3d016745	0.031592626
242	0x3d045661	0.03230894
243	0xbc2eb518	-0.010663293
244	0x3c92eab8	0.017934188
245	0xbcc69b02	-0.024243835
246	0xbc94a668	-0.018145755
247	0xbc2e0287	-0.01062072
248	0xbc75936d	-0.014988762
249	0xbc84ca39	-0.016209709
250	0x3d41d302	0.047320373
251	0xbd11efb8	-0.035629004
252	0xbd0c1cd0	-0.034207165
253	0x392cf979	0.00016496134
254	0xbca242b6	-0.0198072
255	0xbb49fa8e	-0.0030819508

fc2.weight f4 [10, 512]
0	0x3d66b325	0.05632319
1	0x3c2b8d11	0.010470645
2	0x3c13b55a	0.009015406
3	0xbdd4366f	-0.10361945
4	0x3da21e8d	0.07915983
5	0xbd3ae30f	-0.045626696
6	0x3dc98e84	0.09841636
7	0xbbc5b543	-0.006033571
8	0xbd1b9e27	-0.037992623
9	0xbcbc47f2	-0.022983525
10	0xbd79b8f9	-0.06096742
11	0xbccc7d49	-0.024962084
12	0xbc5e38b3	-0.013563323
13	0x3c970f0e	0.018439796
14	0x3b7f62e6	0.003896886
15	0xbc85eeac	-0.01634916
16	0x3d1a8b2b	0.037730377
17	0x3b973e8a	0.0046156095
18	0xbd10f1f3	-0.03538699
19	0xbcee2dbe	-0.029074546
20	0xbcc14447	-0.023592127
21	0xbae7d18f	-0.0017686355
22	0xbd02a80f	-0.031898554
23	0xba13279e	-0.00056135084
24	0x3d269455	0.040668804
25	0x3cac289a	0.021015454
26	0xbd939fef	-0.07208239
27	0xbd12f841	-0.035881285
28	0x3d72f77c	0.05931805
29	0x39225292	0.00015480284
30	0x3da0361d	0.07822821
31	0x3b9a1862	0.0047026137
32	0xbd6f2014	-0.0583802
33	0x3c0088d7	0.007845125
34	0x3ce43cd0	0.027861029
35	0x3d251a81	0.04030848
36	0x3c0e6937	0.008692077
37	0x3d7659c2	0.060144193
38	0x3c72ac7e	0.014811633
39	0xbd9d4d74	-0.07680789
40	0xbd264b3f	-0.040599104
41	0xbd5d6c79	-0.054058526
42	0x3c6e03ea	0.0145273
43	0x3c6b60a9	0.014366307
44	0x3d49bbcc	0.049251363
45	0x3d90b3e9	0.07065565
46	0xbdf17b20	-0.11791062
47	0x3d54cafa	0.051951386
48	0x3c808e34	0.015692808
49	0x3d8fcbb0	0.07021272
50	0x3cee96f5	0.029124716
51	0x3d33cff7	0.043899503
52	0xba05262f	-0.0005079237
53	0xbdd733ac	-0.105079025
54	0x3ca1b00a	0.019737262
55	0x3d67b36a	0.056567587
56	0xbc9ae680	-0.01890874
57	0x3d95acc3	0.07308342
58	0x3d428585	0.047490615
59	0xbe13598c	-0.14389628
60	0x3d04fe97	0.03246936
61	0x3e0d928c	0.13825434
62	0x3d110002	0.035400398
63	0xbc9cf0f3	-0.019157862
64	0xbd1db5e0	-0.038503528
65	0x3c448190	0.011993781
66	0x3d9a0e44	0.07522252
67	0xbc09c5f5	-0.008409013
68	0xbdd04630	-0.10169637
69	0x3d3a946d	0.045551706
70	0xbb32c1ef	-0.0027276238
71	0x3c5792be	0.013157545
72	0xbd995a1d	-0.07487891
73	0x3ce91978	0.028454527
74	0xbdc663f5	-0.09687034
75	0x3bdc48f9	0.006722566
76	0x3cb4fb84	0.022092588
77	0xbd0dc176	-0.034608327
78	0x3b0eac66	0.0021770238
79	0x3d21d47d	0.039509285
80	0x3cc68546	0.024233472
81	0x3d9241ab	0.071414314
82	0x3b5fe02c	0.0034160716
83	0x3d905da0	0.070491076
84	0xbcb1aae9	-0.021687942
85	0x3ce8d482	0.028421644
86	0x3d2a7314	0.041613653
87	0xbcd4fabf	-0.025998471
88	0xbd5389b5	-0.051645
89	0x3db4d7c7	0.08830219
90	0xbde1a1b9	-0.11017174
91	0xbaec893a	-0.0018046268
92	0x3d3dfe38	0.04638502
93	0x3ccee1b5	0.02525411
94	0xbd2f5bd8	-0.0428122
95	0x3ca057b4	0.01957307
96	0xbd408db1	-0.047010127
97	0x3d7ee6f4	0.062231973
98	0xbda74adf	-0.081685774
99	0x3c6e6798	0.014551066
100	0x3d80b612	0.06284727
101	0xbd7deffa	-0.061996438
102	0xbcb81985	-0.022473106
103	0x3de93f9c	0.11389086
104	0x3c033184	0.008007411
105	0x3cc8c90f	0.024509935
106	0x3b937ce4	0.004500972
107	0xbc096f9b	-0.008388425
108	0x3ce14c58	0.027502224
109	0xbd8b18f9	-0.067918725
110	0xbd192ac8	-0.037394315
111	0x3d6e0fe6	0.05812063
112	0xbd8cfb6b	-0.06883892
113	0xbbf7442c	-0.0075459685
114	0xbd4972f3	-0.04918189
115	0x3bdb7716	0.0066975458
116	0x3b24bf86	0.002513857
117	0xbcd4459b	-0.025912097
118	0xbdb72053	-0.08941712
119	0x3dd4dd61	0.10393787
120	0xbcbf3ebe	-0.023345347
121	0x3cbc6d79	0.02300142
122	0x3b8c68d9	0.0042849598
123	0x3d22708f	0.039658125
124	0xbd353a0a	-0.044244803
125	0xbcfc9b59	-0.030835794
126	0x3d8ae9d0	0.067828774
127	0x3d37d129	0.044877205
128	0xbd1b40a9	-0.03790346
129	0x3d5c4409	0.05377582
130	0x3d812f48	0.06307846
131	0xbcc9aefc	-0.024619572
132	0xbcfcc5f1	-0.030856105
133	0xbe083dfd	-0.13304897
134	0x3a841d62	0.0010079558
135	0x3dc18b6b	0.0945042
136	0x3d2d82b7	0.042360988
137	0xbd2494d9	-0.040181015
138	0xbd756479	-0.05991027
139	0xbc8d5e80	-0.017256975
140	0xbcb9b7b7	-0.02267061
141	0xbcf2f2ce	-0.029656794
142	0xbd897c78	-0.06713194
143	0xbce6add5	-0.028159061
144	0xbd8608a2	-0.06544615
145	0xbdb33edd	-0.087522246
146	0x3d987428	0.0744403
147	0x3d27297d	0.04081105
148	0xbc27a972	-0.01023327
149	0xbd374cb9	-0.044750903
150	0x3d1a2174	0.03762956
151	0xbc921b89	-0.017835395
152	0x3d2ac671	0.041693155
153	0x3dc9cd51	0.09853614
154	0x3d29d4a8	0.04146257
155	0xbd887588	-0.06663042
156	0x3cc437f3	0.02395246
157	0xbcb4a60d	-0.022051835
158	0x3cc86a38	0.024464712
159	0x3d166143	0.03671385
160	0x3c36c5b2	0.011155533
161	0x3d851f73	0.06500139
162	0xba6ac4fe	-0.0008955746
163	0x3c4450e1	0.011982174
164	0xbd9f31d3	-0.07773175
165	0xbccd7248	-0.025078908
166	0x3d0fab2d	0.035075355
167	0xbe15010a	-0.14551178
168	0x3b35201d	0.002763755
169	0xbdfc4d06	-0.123193786
170	0xbc4c2cc6	-0.012461847
171	0x3d4ac079	0.049499962
172	0xbb04f026	-0.0020284741
173	0xbd9b6523	-0.0758765
174	0x3d02c839	0.03192923
175	0x3d293ad2	0.04131586
176	0x3d406710	0.046973288
177	0xbc7455a9	-0.014913001
178	0x3d688a59	0.056772564
179	0xbd3f6651	-0.046728436
180	0xbca360a0	-0.019943535
181	0x3cfae26f	0.03062555
182	0xbd0d5e52	-0.03451378
183	0x3cc23840	0.023708463
184	0x3ccbd6b2	0.024882648
185	0xbdeff8c9	-0.11717374
186	0x3d4d0dc4	0.050061956
187	0xbc5ce98e	-0.013483418
188	0xbac6e35c	-0.001517396
189	0x3d01f68c	0.031729266
190	0xbcf127a9	-0.029437857
191	0xbc877d3a	-0.016539205
192	0xbcb9fd9a	-0.022703934
193	0x3bb3cb72	0.005486899
194	0x3c38675c	0.011255112
195	0xbcfcbb8e	-0.030851152
196	0xbd334e9e	-0.043776147
197	0xbd747134	-0.05967827
198	0x3cc5a820	0.02412802
199	0xbd46f165	-0.048570056
200	0xbd9af2b7	-0.075658254
201	0x3c9c0002	0.019042972
202	0x3d8e483f	0.069473736
203	0xbe11e007	-0.14245616
204	0x3cfce8b3	0.030872678
205	0x3c49e4b5	0.012322594
206	0x3dbf64f4	0.09345427
207	0xbd93bd91	-0.07213891
208	0x3dc8d437	0.09806102
209	0xbe01e093	-0.12683325
210	0x3d6d0e89	0.05787519
211	0xbb41eb83	-0.0029589839
212	0x3c36d6f8	0.011159651
213	0x3ba63afe	0.0050729504
214	0xbd05f1ce	-0.032701306
215	0xbd4d0a98	-0.05005893
216	0x3d124b5c	0.0357164
217	0xbc7c114a	-0.015384981
218	0xbd0af4f9	-0.03392503
219	0xbd305a15	-0.04305466
220	0xbd67de0e	-0.056608252
221	0xbd9d0898	-0.07667655
222	0x3c7ec6ad	0.015550298
223	0x3da360c3	0.0797744
224	0xbc96cc58	-0.018407986
225	0x3d9a8978	0.07545751
226	0x3dc26923	0.094927095
227	0x3c958d9c	0.018256001
228	0x3ab606d3	0.0013887532
229	0xbd0a304c	-0.033737466
230	0xbd2395fa	-0.03993795
231	0xbc6c275b	-0.01441368
232	0x3b3932af	0.002825897
233	0xbd018d7a	-0.031629063
234	0x3ddc0e90	0.10744965
235	0xbd16c2fa	-0.036807038
236	0xbde79265	-0.113072194
237	0x3d2054f7	0.03914353
238	0x3d89eb63	0.067343496
239	0x3ce17e52	0.027526055
240	0xbd99ec5b	-0.07515784
241	0x3c69f961	0.014280648
242	0xbc36bff0	-0.01115416
243	0x3d8e8c70	0.0696038
244	0x3c6bba49	0.014387676
245	0x3cc5849b	0.024111083
246	0xbd36cd00	-0.044629097
247	0x3d1c98d5	0.03823169
248	0x3d09ac58	0.033611625
249	0x3d48991c	0.04897414
250	0xbd046007	-0.03231814
251	0xbd1b3bc1	-0.037898783
252	0x3dfbe1b5	0.122989096
253	0x3bc7a648	0.0060928203
254	0x3cae8d52	0.021307621
255	0x3cf450e9	0.029823737

fc2.bias f4 [10]
0	0xbd802b63	-0.06258275
1	0x3d725790	0.059165537
2	0xbc234b16	-0.009966632
3	0xbd9999dc	-0.075000495
4	0xbbfe82bb	-0.007767049
5	0x3ce299bc	0.027661197
6	0xbc71c63d	-0.014756736
7	0xbd6b8c11	-0.057506625
8	0x3df46483	0.119332336
9	0x3d8ad403	0.06778719
