myCode/my_model.pth (torch, 883673 bytes, 8 tensors)

0.weight f4 [32, 1, 3, 3]
-0.23365092 0.18533047 0.11932925 -0.14540176 -0.08852718 0.15222825 0.2952577 0.22521374
0.3239063 0.40131113 0.3377889 0.17974994 -0.25086293 0.03078898 0.059714966 -0.25520706
-0.23050234 -0.34615624 -0.39969552 -0.2278773 0.18395424 -0.09534171 0.05256847 -0.12736124
0.29208478 0.41671276 -0.17820118 -0.22520854 0.15673226 -0.09408393 -0.27662 0.057363745
-0.21021271 0.28864783 -0.093667544 -0.064731225 0.20046408 -0.14868759 -0.23884627 0.16770105
-0.26821578 -0.1457841 -0.24798076 0.21513568 0.47890878 0.12601623 0.2785826 0.23416716
0.1967015 0.06844594 0.121253066 0.18046351 -0.18322867 0.05849471 0.21086437 0.13742605
0.30159557 0.2082691 -0.011700826 0.097238936 0.14635716 0.12961574 0.009464019 -0.26280612
0.078876056 -0.38824093 0.12624025 -0.19719228 0.30236396 0.3983615 0.3034323 0.16769554
0.3040277 0.2322083 0.292482 0.27323493 0.08562001 -0.30249944 0.26176438 -0.17206572
-0.14371116 -0.2037319 -0.14544769 -0.090563156 -0.24001968 -0.050138526 0.24558593 -0.03840898
0.07075249 0.39736408 0.22520301 -0.21069868 -0.22350697 0.40949416 -0.18091373 -0.089447744
-0.04739239 0.20091395 -0.20375277 0.02862826 0.07754731 -0.027602077 -0.3322541 -0.0061939657
-0.18928501 -0.3260219 -0.24388751 0.075392455 -0.39857742 -0.42119592 -0.28274864 -0.14396241
0.13531658 0.048574276 0.27915514 0.23889123 0.2852687 -0.2955395 0.05021062 -0.09795627
-0.022626914 -0.27767313 0.37927848 -0.0438397 0.33365658 -0.19140011 0.15084812 0.1404665
0.10984951 0.17838444 -0.07531427 0.3212546 0.14740592 0.08152009 0.20580994 -0.22089423
0.044559844 0.29300347 0.2827857 -0.04201692 -0.38989747 0.007866913 -0.15883881 -0.14623518
0.17878234 -0.18448542 -0.14117807 -0.1713968 -0.031695794 -0.28809774 0.19974548 -0.26596203
0.30371264 -0.31239417 -0.3223187 -0.3711989 -0.069318086 -0.03043174 -0.2740664 -0.17646696
0.31982216 0.15485653 0.10425172 0.2957148 -0.11511239 0.30513006 -0.101317085 0.014587473
-0.34699646 0.045411207 -0.20491856 0.35253152 0.03671186 0.36940712 0.28288993 0.31185442
0.05412969 0.0777334 -0.2662904 -0.08160206 -0.24247494 0.11766116 0.349162 0.12488892
0.3175012 0.35273463 0.16655317 -0.12791395 0.05561538 -0.14866437 -0.10125116 0.004717707
-0.007891661 -0.0044379747 -0.012336155 -0.1647418 0.07279886 -0.07534657 0.35192424 0.03658347
-0.005551399 0.28634217 -0.038658287 -0.32881916 -0.07898683 -0.39930493 -0.07950828 0.30942947
0.27749777 0.1860512 -0.1332112 0.32963237 -0.23626731 -0.011804578 -0.18700059 -0.32990858
-0.25423178 0.04302336 -0.05676726 -0.051841866 -0.020575352 0.009768912 -0.24438228 0.10963214
0.17200853 0.052960362 -0.2915409 -0.392626 0.1078323 0.2372241 0.06649385 0.11403734
0.19563109 -0.25179583 0.24417485 -0.22853945 0.30358222 0.04838379 0.13235785 0.10021773
-0.20365368 0.012793517 -0.13568987 0.25454745 -0.041514494 -0.31744486 -0.23621914 0.37357846
0.35761315 0.39420915 0.25299853 -0.09293148 0.24689892 0.10820975 0.18320322 0.24621227
00000000: 3042 6fbe 45c7 3d3e e562 f43d 33e4 14be
00000010: bd4d b5bd b9e1 1b3e 042c 973e 6e9e 663e
00000020: 0cd7 a53e a778 cd3e abf2 ac3e 5e10 383e
00000030: 1b71 80be 2c39 fc3c ae97 743d 80aa 82be
00000040: ce08 6cbe 643b b1be e4a4 ccbe ab58 69be
00000050: 805e 3c3e 8442 c3bd 0952 573d fc6a 02be
00000060: 238c 953e 605b d53e 5f7a 36be 119d 66be
00000070: 6c7e 203e 13af c0bd 23a1 8dbe 3ff6 6a3d
00000080: 0042 57be a6c9 933e c5d4 bfbd ce91 84bd
00000090: 7546 4d3e 8f41 18be 1e94 74be d3b9 2b3e
000000a0: 9453 89be 6d48 15be abee 7dbe 874c 5c3e
000000b0: 8833 f53e 660a 013e 61a2 8e3e 84c9 6f3e
000000c0: 1e6c 493e 632d 8c3d 8753 f83d 6dcb 383e
000000d0: 4ca0 3bbe 2698 6f3d d4ec 573e 6ab9 0c3e
000000e0: bc6a 9a3e 7f44 553e d2b4 3fbc 3525 c73d
000000f0: a7de 153e fdb9 043e f90e 1b3c 868e 86be
00000100: c589 a13d 84c7 c6be 2045 013e c6ec 49be
00000110: 73cf 9a3e 0af6 cb3e 7a5b 9b3e 61b8 2b3e
00000120: 85a9 9b3e 03c8 6d3e 33c0 953e 73e5 8b3e
00000130: 8b59 af3d 35e1 9abe fb05 863e ff31 30be
00000140: 0529 13be 189f 50be 3df0 14be 2d79 b9bd
00000150: b8c7 75be 0e5e 4dbd e17a 7b3e bc52 1dbd
00000160: aee6 903d 4e73 cb3e 9e9b 663e 65c1 57be
00000170: 03df 64be 38a9 d13e 7341 39be 6130 b7bd
00000180: 861e 42bd 63bc 4d3e 91a4 50be d085 ea3c
00000190: 20d1 9e3d c01d e2bc 361d aabe c0f6 cabb
000001a0: eed3 41be 58ec a6be a6bd 79be 5c67 9a3d
000001b0: 5712 ccbe fea6 d7be 6ec4 90be e26a 13be
000001c0: 6e90 0a3e d2f5 463d 6ced 8e3e e79f 743e
000001d0: bd0e 923e f450 97be a7a9 4d3d 4c9d c8bd
000001e0: 145c b9bc 2c2b 8ebe ca30 c23e 4291 33bd
000001f0: 09d5 aa3e 64fe 43be ee77 1a3e 73d6 0f3e
00000200: c8f8 e03d 69aa 363e 5e3e 9abd 7c7b a43e
00000210: 94f1 163e 01f4 a63d d7bf 523e 1932 62be
00000220: 6284 363d 8d04 963e 4ac9 903e ef19 2cbd
00000230: a4a0 c7be 3ae4 003c a4a6 22be adbe 15be
00000240: b812 373e bfe9 3cbe fc90 10be a582 2fbe
00000250: 73d3 01bd 8c81 93be 148a 4c3e 2d2c 88be
00000260: 3980 9b3e 21f2 9fbe f506 a5be c80d bebe
00000270: a4f6 8dbd fc4b f9bc 6e52 8cbe c1b3 34be
00000280: bbbf a33e b692 1e3e ed81 d53d ee67 973e
00000290: 0bc0 ebbd 023a 9c3e 557f cfbd 4c00 6f3c
000002a0: 85a9 b1be 1a01 3a3d 2cd6 51be 037f b43e
000002b0: 2d5f 163d ee22 bd3e f3d6 903e 62ab 9f3e
000002c0: 18b7 5d3d b032 9f3d 3757 88be fb1e a7bd
000002d0: 5a4b 78be 56f8 f03d 5dc5 b23e c3c5 ff3d
000002e0: 848f a23e a299 b43e ea8c 2a3e e0fb 02be
000002f0: f4cc 633d 793b 18be c55c cfbd ff96 9a3b
00000300: 064c 01bc 6e6c 91bb 961d 4abc 13b2 28be
00000310: 9217 953d 4d4f 9abd 6a2f b43e 8cd8 153d
00000320: 83e8 b5bb 719b 923e 2758 1ebd fc5a a8be
00000330: d9c3 a1bd b271 ccbe 3dd5 a2bd 8a6d 9e3e
00000340: 3014 8e3e 3584 3e3e 8468 08be 93c5 a83e
00000350: 0ff0 71be fd67 41bc 157d 3fbe c7e9 a8be
00000360: ab2a 82be 4339 303d c984 68bd 2358 54bd
00000370: a48d a8bc c90d 203c 593f 7abe d186 e03d
00000380: 0123 303e f7ec 583d d944 95be 4606 c9be
00000390: 2ed7 dc3d e0ea 723e ed2d 883d 698c e93d
000003a0: 8453 483e 62eb 80be f908 7a3e 3f06 6abe
000003b0: 216f 9b3e 152e 463d d188 073e f43e cd3d
000003c0: 978a 50be e69b 513c 49f2 0abe 0b54 823e
000003d0: 1a0b 2abd 2288 a2be 6ee3 71be ad45 bf3e
000003e0: 1219 b73e c8d5 c93e 0689 813e dc52 bebd
000003f0: 12d3 7c3e 139d dd3d a099 3b3e 121f 7c3e

0.bias f4 [32]
0.067999005 0.06978013 0.09144312 0.47220474 -0.012737153 -0.27615798 -0.3671503 -0.013377092
-0.0059329374 0.07221298 0.08876154 -0.26606008 0.26922965 0.169013 -0.22046117 0.3272565
0.39819714 -0.18716808 -0.012299942 -0.24333069 -0.35703418 0.43334407 0.25749078 -0.20977922
0.29882833 0.17413792 0.19952998 -0.31824735 -0.14346713 0.43769237 -0.18602203 -0.23263463
00000000: 1043 8b3d e3e8 8e3d 8846 bb3d d2c4 f13e
00000010: 7eaf 50bc 9464 8dbe 20fb bbbe 972b 5bbc
00000020: 1669 c2bb 66e4 933d 9cc8 b53d 0739 88be
00000030: 78d8 893e be11 2d3e 93c0 61be 2a8e a73e
00000040: 7fe0 cb3e fda8 3fbe b285 49bc ae2b 79be
00000050: 2fcd b6be 46df dd3e d5d5 833e 5dd0 56be
00000060: 0700 993e 3651 323e 9651 4c3e 51f1 a2be
00000070: 0ce9 12be 3719 e03e 8f7c 3ebe c637 6ebe

3.weight f4 [64, 32, 3, 3]
-0.015732765 0.0078640925 0.06572382 0.06457139 -0.05731772 -0.04143435 0.054744013 -0.07041056
-0.020636791 -0.027828878 0.14072748 0.11835114 -0.14552443 -0.007472854 0.05510381 0.0027383252
0.011365436 -0.03275648 0.1574975 0.055746436 -0.12624861 0.050222017 0.06993916 0.011781494
0.028167635 0.024260035 0.06110055 0.15935773 0.112700745 0.082944945 0.024356527 0.12109356
0.14330453 -0.00970598 0.031134054 0.09150939 -0.04955208 -0.13945375 -0.02517489 0.06498278
-0.08494484 -0.14708075 -0.042015694 -0.029342445 -0.055895947 -0.020590039 -0.05360341 0.06826697
0.006703042 -0.12740275 0.005407797 0.024583168 -0.03865879 -0.07487326 -0.035006728 -0.11595327
0.061850686 -0.0023530852 -0.08781893 0.012543734 0.018437134 -0.1084086 -0.087262824 -0.049694296
-0.14260845 -0.010554621 0.10714665 0.0014000421 -0.055448353 0.06550235 0.027152484 -0.052324194
0.03793028 -0.05651508 0.07732921 -0.025915302 -0.054616794 -0.06023355 0.08334787 0.044181846
-0.06535491 -0.085393995 0.110170506 0.14005543 -0.05893439 -0.08540323 0.15018551 -0.07542321
-0.032319885 0.11062707 0.16649053 0.01853237 -0.038050234 0.216224 0.06870934 0.024350429
0.08796417 0.12950316 0.08649592 -0.021939274 0.028920341 0.019164179 -0.05731326 -0.04062029
-0.048781585 0.010631483 -0.031009186 0.020202126 0.01633643 -0.04869263 -0.0325035 -0.012157893
-0.047453612 -0.06510579 0.012016615 0.023074813 0.055721063 0.066325314 0.14429517 0.07849502
-0.04826686 0.019710004 0.14934587 -0.024170713 0.03594022 0.15471713 -0.11153471 -0.058539983
0.008925945 -0.024170479 -0.07491023 0.045545876 0.040115982 -0.093123086 0.024100877 0.10210984
0.074692346 0.066854 0.04641408 0.0029068782 -0.0052622305 0.06109678 0.04154208 0.035087295
0.1742893 0.015348486 0.056337837 0.022523774 0.04118194 0.066715285 0.0034680685 0.11887655
0.13883919 -0.07128664 0.019138386 -0.025026342 -0.1351677 -0.07403451 -0.101430185 -0.08976489
0.020797234 -0.054624055 -0.04546689 0.024743842 0.10859937 -0.09169132 -0.1107359 -0.055845596
0.05113331 0.019683925 -6.1212835e-05 -0.04532281 -0.061079226 0.026080975 0.0018328718 -0.067635216
-0.07760477 0.061581437 -0.016326731 -0.035743266 -0.03003157 0.062062167 0.040354077 -0.046909526
-0.12334941 0.075501315 -0.031318408 -0.09750681 0.040049393 0.12689608 0.0867768 0.1209032
0.045020275 0.059376616 0.09975898 -0.0550318 0.10441399 0.16581053 0.017146457 -0.02911858
0.016258396 -0.0132043725 0.075694315 -0.013617813 0.0748046 0.17519324 0.046064045 0.050302904
0.032191895 0.013204682 -0.01164361 -0.15454732 0.008047977 0.049603954 -0.03343269 -0.048267793
-0.004199793 0.08861814 0.024144577 -0.031265266 -0.049057893 0.054785483 0.019344846 -0.051827695
0.10189821 0.20457298 -0.047696896 -0.03761541 0.14060853 0.15094386 -0.07560268 0.091220155
0.16700226 0.039199296 -0.03276257 0.030442765 0.063369796 -0.05558207 -0.039325364 0.0019300584
0.06564744 0.00044889672 0.059446346 0.013692758 -0.14483121 0.005050156 0.093238525 -0.06775114
-0.18658301 0.10060478 0.04813041 -0.035992768 0.06845651 -0.03846381 0.07690688 0.03324324
00000000: 00e2 80bc 65d8 003c 369a 863d 013e 843d
00000010: fcc5 6abd 11b7 29bd 423b 603d 6933 90bd
00000020: 7d0e a9bc 63f9 e3bc dd1a 103e 1562 f23d
00000030: 5b04 15be d8de f4bb 88b4 613d 7975 333b
00000040: 1836 3a3c a92b 06bd 0647 213e 6056 643d
00000050: 5147 01be 9ab5 4d3d 433c 8f3d 2b07 413c
00000060: d0bf e63c fbbc c63c 9244 7a3d ac2e 233e
00000070: a6cf e63d 0adf a93d 5787 c73c e6ff f73d
00000080: 6cbe 123e d505 1fbc d80c ff3c 4669 bb3d
00000090: 1ff7 4abd f7cc 0ebe 923b cebc b115 853d
000000a0: 8ff7 adbd 569c 16be a618 2cbd 915f f0bc
000000b0: 26f3 64bd 71ac a8bc 408f 5bbd 8ecf 8b3d
000000c0: 31a5 db3b de75 02be e433 b13b a462 c93c
000000d0: ae58 1ebd 2757 99bd 3763 0fbd e878 edbd
000000e0: 2557 7d3d 3836 1abb 69da b3bd 3c84 4d3c
000000f0: 7909 973c 5405 debd dab6 b2bd 3f8c 4bbd
00000100: f307 12be 4aed 2cbc b46f db3d 9e81 b73a
00000110: d01d 63bd 1926 863d e36e de3c e551 56bd
00000120: c85c 1b3d 5b7c 67bd c75e 9e3d 544c d4bc
00000130: dcb5 5fbd 74b7 76bd 4ab2 aa3d 06f8 343d
00000140: ccd8 85bd 0ce3 aebd 13a1 e13d b16a 0f3e
00000150: 3065 71bd e3e7 aebd 3bca 193e 7c77 9abd
00000160: db61 04bd 7290 e23d 7e7c 2a3e 32d1 973c
00000170: 90da 1bbd d369 5d3e 7cb7 8c3d 8d7a c73c
00000180: 8f26 b43d 7a9c 043e c624 b13d feb9 b3bc
00000190: 5aea ec3c 32fe 9c3c 4fc1 6abd 7661 26bd
000001a0: 33cf 47bd ac2f 2e3c fa06 febc ee7e a53c
000001b0: fad3 853c ec71 47bd 6422 05bd e631 47bc
000001c0: b85e 42bd 2f56 85bd 56e1 443c 6407 bd3c
000001d0: c53b 643d 91d5 873d 1dc2 133e ffc1 a03d
000001e0: 79b3 45bd e076 a13c 20ee 183e a901 c6bc
000001f0: 0d36 133d 2b6e 1e3e 4f6c e4bd 9fc7 6fbd
00000200: 203e 123c 2b01 c6bc 896a 99bd 508e 3a3d
00000210: a850 243d 51b7 bebd 346f c53c f71e d13d
00000220: 4df8 983d c0ea 883d b11c 3e3d 5381 3e3b
00000230: ca6e acbb 9e40 7a3d 0728 2a3d b2b7 0f3d
00000240: e578 323e 3778 7b3c 81c2 663d c783 b83c
00000250: 65ae 283d 06a2 883d 8948 633b 8c75 f33d
00000260: dc2b 0e3e bbfe 91bd 1bc8 9c3c 0b04 cdbc
00000270: 6769 0abe 689f 97bd a1ba cfbd a8d6 b7bd
00000280: f65e aa3c 79bd 5fbd 7d3b 3abd 99b3 ca3c
00000290: 5969 de3d a9c8 bbbd 81c9 e2bd 5abe 64bd
000002a0: 2971 513d 2f40 a13c 645f 80b8 69a4 39bd
000002b0: 362e 7abd c5a7 d53c f93c f03a 5584 8abd
000002c0: 40ef 9ebd d13c 7c3d a3bf 85bc 8867 12bd
000002d0: c404 f6bc e634 7e3d 514a 253d 3424 40bd
000002e0: 9e9e fcbd 6fa0 9a3d bb47 00bd a7b1 c7bd
000002f0: d50a 243d 0cf1 013e 09b8 b13d 199c f73d
00000300: 2e67 383d e534 733d 704e cc3d 0669 61bd
00000310: 01d7 d53d 3cca 293e ba76 8c3c 178a eebc
00000320: 5430 853c 2757 58bc 9f05 9b3d 3f1d 5fbc
00000330: 2733 993d db65 333e a7ad 3c3d 6b0a 4e3d
00000340: a6db 033d 7358 583c d7c4 3ebc a741 1ebe
00000350: aadb 033c 842d 4b3d b7f0 08bd 73b4 45bd
00000360: 6b9e 89bb 6d7d b53d d9ca c53c 0210 00bd
00000370: eef0 48bd be66 603d 1579 9e3c 4749 54bd
00000380: 02b0 d03d 947b 513e d25d 43bd 9e12 1abd
00000390: affb 0f3e 0791 1a3e 94d5 9abd a2d1 ba3d
000003a0: a402 2b3e 718f 203d 0b32 06bd 1b63 f93c
000003b0: 06c8 813d 06aa 63bd a213 21bd 03fa fc3a
000003c0: 2a72 863d e659 eb39 037e 733d 9757 603c
000003d0: a24e 14be c77b a53b d7f3 be3d 1cc1 8abd
000003e0: 9e0f 3fbe e109 ce3d 6524 453d 276d 13bd
000003f0: ed32 8c3d 3a8c 1dbd 5b81 9d3d 102a 083d

3.bias f4 [64]
-0.025848143 -0.017433327 -0.048697606 -0.0016821699 -0.037977517 0.017907305 -0.009395874 0.048670966
-0.007942858 0.0532052 0.073714115 -0.03112031 0.04696395 0.00032158548 -0.04454498 -0.016305832
0.021556567 -0.03298815 0.039187863 0.046652745 0.039108325 -0.02047281 0.027385948 -0.03880563
0.089318156 -0.053468425 0.023425153 0.0386218 0.03769708 -0.0365354 -0.017288024 0.0075341337
-0.059172977 0.072352365 -0.049053602 -0.029124225 -0.047901586 -0.001625557 0.039695226 0.0037497
-0.015292099 -0.02331263 0.030482672 -0.047342416 0.060629223 0.030506281 0.008078205 -0.048397306
-4.9738264e-06 -0.0004445976 0.038697544 -0.0067789666 -0.004629686 -0.059707318 0.022646083 0.02548594
0.015451117 -0.059208255 -0.026786538 -0.03640766 -0.018393861 -0.025063118 0.005673628 -0.06547805
00000000: 7cbf d3bc 56d0 8ebc 2477 47bd 417c dcba
00000010: 508e 1bbd 57b2 923c 27f1 19bc 355b 473d
00000020: c322 02bc b2ed 593d 6df7 963d 05f0 febc
00000030: 455d 403d 799a a839 cc74 36bd cf93 85bc
00000040: 6697 b03c 951e 07bd 7483 203d f316 3f3d
00000050: 0d30 203d 98b6 a7bc 7f58 e03c a7f2 1ebd
00000060: 70ec b63d b501 5bbd 1be6 bf3c e431 1e3d
00000070: 4168 1a3d 25a6 15bd 9d9f 8dbc e5e0 f63b
00000080: 5d5f 72bd 7a2d 943d 6eec 48bd ed95 eebc
00000090: 7434 44bd a410 d5ba 7697 223d 87bd 753b
000000a0: b68b 7abc 21fa bebc ccb6 f93c 1fea 41bd
000000b0: 5956 783d 4fe8 f93c 735a 043c 413c 46bd
000000c0: d8e4 a6b6 e118 e9b9 5181 1e3d 1822 debb
000000d0: 9fb4 97bb a98f 74bd 4784 b93c e4c7 d03c
000000e0: af26 7d3c 5b84 72bd 716f dbbc 3320 15bd
000000f0: b9ae 96bc 2b51 cdbc d7e9 b93b 5b19 86bd

7.weight f4 [64, 3136]
-0.029306566 -0.01914043 -0.028127981 -0.032280006 0.0095279515 0.0010630172 -0.0032447057 0.0044126236
0.0036349108 -0.021261267 0.000902343 -0.007155013 0.004905969 -0.013966164 0.0019954816 -0.004845342
-0.034732446 -0.0112136975 0.006786769 0.009982884 -0.001391096 0.01095032 0.00217414 -0.03764954
-0.04451663 -0.0059763733 0.026890706 0.02886203 0.008295326 -0.0044137333 -0.021036433 -0.011165459
-0.03354343 -0.010897552 0.004178295 -0.021974076 -0.0015359127 -0.014229497 -0.025760075 -0.026607256
-0.02915563 -0.007529214 -0.03161671 -0.01870635 -0.0071964674 -0.026105585 -0.023373943 -0.042356037
-0.015823526 0.004811003 -0.009091552 -0.030663738 -0.023439953 -0.0018416223 -0.0033953497 -0.0071996856
-0.014453793 -0.01000608 -0.02276728 -0.030148584 -0.0021146934 -0.0066266605 -0.0073117316 0.00022014759
-0.027005566 -0.024621949 -0.00056793605 -0.008210056 0.020692926 -0.007154213 -0.001152269 -0.021860212
-0.017410928 -0.039779946 -0.010202623 -0.002450259 0.0112022385 -0.0046509504 0.008532778 -0.0154985385
-0.000556107 0.005529623 -0.015531074 -0.00847689 -0.009889947 -0.021245588 -0.019222757 -0.018065833
-0.01843998 -0.00035725554 -0.01784328 -0.0041568163 2.6258658e-05 -0.0029682538 0.003197387 -0.018640455
-0.023396203 -0.0014583 0.0012975391 0.0070693856 0.0045247604 -0.003942862 0.0056679496 -0.0036221766
-0.00278375 0.009593322 -0.01828112 -0.009435782 -0.0023647663 0.019925803 0.0030550768 -0.003711339
0.004031717 0.0055881836 0.015554932 0.0018656456 0.0043662707 0.014083973 -0.007467788 0.0036880889
0.004988011 -0.0074501657 0.008681553 -0.0065618134 -0.02365776 0.0085107 0.010095763 0.006688677
0.007301788 -0.010610399 0.010263679 -0.008839942 -0.012790652 -0.021078648 0.0077544292 -0.012502978
-0.0030849893 -0.0007921168 -0.019776516 -0.016385991 -0.0011303219 0.006419827 0.011567449 0.02117463
0.002021009 -0.01933353 -0.022034755 0.0026444418 0.009969425 -0.01794684 0.0076776664 0.006998682
0.0099535 -0.03295521 -0.0010938448 -0.027469661 -0.014586194 -0.036546394 -0.007618743 0.027416674
-0.026049117 -0.0030176202 -0.009784525 -0.009441848 -0.0039767763 -0.0055904645 -0.00041472018 0.0021616723
0.040398184 0.0011220729 -0.028558884 -0.02332798 0.014770152 0.02291116 0.021985319 0.013538461
-0.008070198 -0.0049639144 -0.0067064627 -0.012843638 -0.04099434 1.9067898e-05 -0.0038455771 0.038675427
-0.005495646 0.022066392 -0.02385628 -0.030662166 -0.0143845035 -0.016978238 -0.0007086943 0.019423828
-0.010628973 0.0069518127 -0.002124345 -0.018924762 -0.017392417 -0.019633805 -0.016433943 -0.012013182
-0.005952185 0.0013149432 -0.019368675 0.008140778 -0.012234117 -0.006310918 -0.014926693 0.010851262
-0.019878898 0.006730484 -0.020655885 -0.023458933 -0.0017970144 -0.02026766 0.010637725 0.010703737
0.009907968 -0.003022968 -0.012128038 0.004040817 -0.025935609 -0.013511553 -0.019273294 -0.0039406787
-0.02263593 0.004171725 -0.004192792 0.0015192779 -0.017374085 -0.014353241 -0.011122381 0.0017333579
-0.016768435 -0.00066190196 -0.012660624 -0.013733678 -0.013857411 0.0036679143 -0.013051988 -0.009543726
-0.007183863 -0.012945514 0.0055945762 -0.011911435 -0.023878803 -0.0043496042 0.0034439303 -0.0049128
-0.0037336517 0.008803586 0.015952742 -0.0062950347 -0.013781965 -0.0059737293 -0.009054559 0.005784206
00000000: 5314 f0bc 64cc 9cbc a76c e6bc 0a38 04bd
00000010: 201b 1c3c f054 8b3a 21a5 54bb c597 903b
00000020: af37 6e3b 1c2c aebc 378b 6c3a 9974 eabb
00000030: 40c2 a03b 56d2 64bc a0c6 023b adc5 9ebb
00000040: 9c43 0ebd a8b9 37bc 8b63 de3b 408f 233c
00000050: 7055 b6ba f968 333c 047c 0e3b 6736 1abd
00000060: 1257 36bd 74d5 c3bb e649 dc3c 1070 ec3c
00000070: 1ee9 073c 14a1 90bb 9954 acbc 54ef 36bc
00000080: d664 09bd a58b 32bc 14ea 883b fa02 b4bc
00000090: ae50 c9ba d622 69bc cb06 d3bc 76f7 d9bc
000000a0: cad7 eebc a0b7 f6bb 8680 01bd 0f3e 99bc
000000b0: 58d0 ebbb 61db d5bc b67a bfbc 867d 2dbd
000000c0: 57a0 81bc 9ea5 9d3b bcf4 14bc 8532 fbbc
000000d0: 2505 c0bc 9762 f1ba 8484 5ebb 57eb ebbb
000000e0: 9acf 6cbc 8bf0 23bc 7282 babc 2afa f6bc
000000f0: ab96 0abb 7524 d9bb 4097 efbb 6bd7 6639
00000100: c73a ddbc f8b3 c9bc 8be1 14ba 7983 06bc
00000110: 3684 a93c e36d eabb bb07 97ba 3014 b3bc
00000120: 5da1 8ebc 4cf0 22bd e728 27bc 8694 20bb
00000130: 9889 373c 0067 98bb 11cd 0b3c 95ed 7dbc
00000140: b6c7 11ba d731 b53b 0c76 7ebc a7e2 0abc
00000150: 7209 22bc 3a0b aebc 0b79 9dbc ccfe 93bc
00000160: 710f 97bc 074e bbb9 122c 92bc e735 88bb
00000170: 0a46 dc37 0987 42bb 418b 513b deb3 98bc
00000180: 65a9 bfbc 6e24 bfba 3012 aa3a 4ea6 e73b
00000190: 7144 943b 2033 81bb 35ba b93b 0a62 6dbb
000001a0: 936f 36bb 4f2d 1d3c 4ac2 95bc 8a98 1abc
000001b0: 32fa 1abb 703b a33c af37 483b f039 73bb
000001c0: 7e1c 843b 151d b73b 1dda 7e3c ae88 f43a
000001d0: ef12 8f3b 77c0 663c 59b4 f4bb ddb3 713b
000001e0: 7872 a33b 8520 f4bb 133d 0e3c 7b04 d7bb
000001f0: ebcd c1bc 7770 0b3c b368 253c b02c db3b
00000200: d643 ef3b 3dd7 2dbc fd28 283c 67d5 10bc
00000210: e28f 51bc 21ad acbc de18 fe3b 4ad9 4cbc
00000220: 882d 4abb 0fa6 4fba 5c02 a2bc ea3b 86bc
00000230: 4f27 94ba 6a5d d23b 6685 3d3c 6b76 ad3c
00000240: e872 043b 5a61 9ebc 3b82 b4bc 5f4e 2d3b
00000250: cd56 233c 4005 93bc ef94 fb3b 3355 e53b
00000260: 0114 233c 0bfc 06bd 575f 8fba 0e08 e1bc
00000270: effa 6ebc acb1 15bd a6a6 f9bb ef98 e03c
00000280: f564 d5bc 44c3 45bb 464f 20bc fbb1 1abc
00000290: 9e4f 82bb 3730 b7bb cd6e d9b9 d8aa 0d3b
000002a0: 9178 253d 8512 933a 52f4 e9bc 521a bfbc
000002b0: 82fe 713c 2fb0 bb3c 8e1a b43c 6cd0 5d3c
000002c0: dd38 04bc 55a8 a2bb e3c1 dbbb 1f6e 52bc
000002d0: aee9 27bd 00f4 9f37 1406 7cbb 206a 1e3d
000002e0: d214 b4bb 94c4 b43c 3f6e c3bc 392f fbbc
000002f0: fbac 6bbc f215 8bbc abc7 39ba b81e 9f3c
00000300: 2525 2ebc 08cc e33b 9838 0bbb 1a08 9bbc
00000310: 8b7a 8ebc 13d7 a0bc 7aa0 86bc f0d2 44bc
00000320: 8c0a c3bb 2c5a ac3a 0eab 9ebc e660 053c
00000330: 9b71 48bc d1cb cebb 178f 74bc 7ec9 313c
00000340: 12d9 a2bc 648b dc3b 8836 a9bc f32c c0bc
00000350: cc89 ebba 5d08 a6bc da49 2e3c ba5e 2f3c
00000360: 0855 223c fd1c 46bb aeb4 46bc d468 843b
00000370: ea76 d4bc 905f 5dbc 07e3 9dbc cf20 81bb
00000380: fc6e b9bc f7b2 883b b063 89bb 8222 c73a
00000390: 1954 8ebc db29 6bbc a63a 36bc d731 e33a
000003a0: f55d 89bc 7d83 2dba 826e 4fbc 3803 61bc
000003b0: 320a 63bc 6461 703b 01d8 55bc 4a5d 1cbc
000003c0: 9c66 ebbb 6c19 54bc b552 b73b 2e28 43bc
000003d0: 7b9d c3bc 2087 8ebb 90b3 613b 8efb a0bb
000003e0: 48b0 74bb ea3c 103c 53af 823c 9446 cebb
000003f0: c0cd 61bc 46bf c3bb 9359 14bc 7089 bd3b

7.bias f4 [64]
-0.020569801 -0.015846748 -0.019051043 -0.01047637 -0.019869646 0.0034703226 0.009555178 -0.016825952
-0.0014711536 -0.015902482 0.003401352 -0.023211112 0.007959729 -0.0062169475 0.018608354 -0.012313229
0.010737281 -0.014694284 -0.008383292 0.00072209083 0.014916497 -0.010427948 0.006809655 -0.0008739804
-0.022480765 0.0021615983 0.002812682 0.0068592415 -0.008214756 -0.01354934 0.010778474 0.018404659
-0.025404617 0.01302816 -0.011875956 -0.02090336 -0.011723633 -0.010411348 0.017885666 0.009815717
-0.010434078 0.0012641534 -0.0017183111 -0.014100006 0.007157502 0.011300813 -0.019751513 -0.0118498225
-0.023593055 0.0019619248 0.020291174 -0.020650825 -0.017759731 0.0037280743 0.022420017 -0.0047643445
0.0040961467 -0.0036935057 0.01769801 0.01889586 -0.0027525395 0.016146846 -0.013773446 -0.01693594
00000000: 0082 a8bc 0ad1 81bc ef10 9cbc 15a5 2bbc
00000010: abc5 a2bc 5a6e 633b 528d 1c3c 94d6 89bc
00000020: b9d3 c0ba ec45 82bc 38e9 5e3b 3b25 bebc
00000030: 8669 023c 89b7 cbbb 8c70 983c 6dbd 49bc
00000040: 6ceb 2f3c 4bc0 70bc 135a 09bc b24a 3d3a
00000050: 5364 743c fcd9 2abc 8723 df3b d51b 65ba
00000060: 9529 b8bc 9aa9 0d3b f954 383b 7dc3 e03b
00000070: 2f97 06bc 0dfe 5dbc 3298 303c 5ec5 963c
00000080: 581d d0bc 1074 553c 5f93 42bc 863d abbc
00000090: 7b14 40bc 5c94 2abc f684 923c 1ad2 203c
000000a0: b2f3 2abc f3b1 a53a f438 e1ba b603 67bc
000000b0: 7b89 ea3b 0c27 393c edcd a1bc c225 42bc
000000c0: 3946 c1bc a393 003b ad39 a63c eb2b a9bc
000000d0: db7c 91bc b552 743b 2faa b73c 381e 9cbb
000000e0: f838 863b be0e 72bb 6bfb 903c 7ecb 9a3c
000000f0: f363 34bb 6446 843c 05aa 61bc 3ebd 8abc

9.weight f4 [10, 64]
-0.07333536 0.07468115 -0.05041125 0.09041838 -0.059694447 0.027208675 0.044070255 -0.16449165
0.10547676 -0.09963673 0.13835001 -0.06542241 0.03626115 0.013987333 0.113880284 -0.029479723
0.0078160055 0.07639492 0.019564113 -0.04732639 0.0798076 -0.06444208 -0.059813168 0.04118128
-0.051930998 0.05542818 -0.14376895 -0.11836619 0.0560197 0.11649625 0.1042121 0.08047767
0.014950028 0.11460042 -0.016632631 -0.09727601 -0.09965421 -0.03481279 -0.23088995 0.10787155
0.10561088 -0.034924246 -0.03718926 -0.0023765892 -0.046940062 -0.033646077 -0.11509344 -0.031069728
-0.0825418 0.007913656 0.09648253 -0.06398702 -0.11172001 0.108814396 -0.051886883 -0.08445455
0.11162802 -0.0017555866 0.081763804 0.071910165 0.07960352 0.042281907 0.09642446 -0.015763178
-0.07941453 -0.008980917 0.032148927 0.09802897 0.023666386 0.058626078 0.075541295 -0.21985765
-0.13811423 0.045992106 -0.25966865 -0.047123343 -0.07293069 0.017551076 -0.1832014 -0.12738241
-0.07101905 0.057949156 0.024861926 0.09598787 -0.13309635 0.020255843 -0.084247746 -0.16426647
0.106605716 0.19655493 -0.019014096 0.02717711 0.062126648 0.03351935 -0.025996475 0.0015514053
-0.013891693 0.13076663 -0.018111771 -0.08587027 0.009887241 -0.09311739 0.13194618 -0.090237424
-0.053566594 -0.076284535 0.07738738 -0.10130121 -0.08158313 -0.12603082 0.0374354 -0.10740469
-0.12498821 -0.16920923 -0.16991943 0.104648896 0.09437997 -0.11226892 0.10423756 -0.080026254
0.03688105 0.084161624 -0.07643856 -0.12541565 -0.22038703 -0.04711078 0.08972893 -0.03819977
-0.09694227 0.02318732 -0.038271848 -0.043663062 0.07466841 0.075469725 -0.18244058 0.04124102
-0.030289564 -0.10973409 0.081324555 -0.055550504 -0.00027837214 0.059785694 -0.13895747 0.018418703
0.105035126 -0.059118908 0.022067424 0.023600869 0.095386505 -0.007112207 0.082015485 0.06723358
-0.09228002 -0.18466678 -0.12780279 0.038103517 0.10186452 0.09549098 -0.033312954 0.10310624
-0.027621398 0.054320388 -0.08088724 -0.07810856 -0.11924398 0.1113127 -0.11306198 -0.052362427
-0.04340419 -0.0068658846 -0.08040646 -0.033742424 -0.13049453 -0.030834261 0.041766994 -0.08867629
0.09122273 0.059924357 0.1399614 -0.08324193 0.10469662 -0.101838335 0.117831476 -0.010837115
-0.05714685 -0.07145501 0.10423416 -0.11698078 -0.17579983 -0.06311574 -0.08221356 -0.02288808
0.05597649 -0.03289802 -0.12473551 0.010683736 -0.011718927 -0.0099748 -0.08112062 -0.024714021
-0.08260531 0.10636998 0.07970673 0.118190885 -0.08725674 -0.08140203 0.09895684 0.08287743
-0.02942504 -0.05519068 -0.09708734 0.004914273 -0.013747551 -0.08423692 -0.0025057262 -0.056999505
0.044317905 0.10990281 -0.101130344 -0.074621156 0.020152919 -0.07894661 0.09290041 0.12700471
-0.02092022 -0.20458983 -0.12139231 -0.06769314 -0.08006514 -0.027313396 0.06478499 0.09388241
-0.025041664 -0.12018002 -0.06758886 0.096581995 0.04753561 0.08294569 -0.032890532 0.029980224
-0.10727639 -0.18393593 0.035800878 0.020585725 -0.08187509 0.08990344 0.04401549 0.09449427
-0.12512298 -0.10688451 -0.102574326 -0.021296537 -0.0734135 -0.113249004 0.006838164 -0.111373276
00000000: d930 96bd 6ef2 983d 077c 4ebd 462d b93d
00000010: 2a82 74bd bae4 de3c 0383 343d 8070 28be
00000020: 3304 d83d 580e ccbd a0ab 0d3e 2ffc 85bd
00000030: 9286 143d 202b 653c 113a e93d 767f f1bc
00000040: b40e 003c f174 9c3d eb44 a03c 51d9 41bd
00000050: 2b72 a33d 36fa 83bd a7fe 74bd b4ad 283d
00000060: 99b5 54bd a908 633d 2b38 13be f969 f2bd
00000070: ea74 653d 9695 ee3d 276d d53d 7ad1 a43d
00000080: f6f0 743c a0b3 ea3d 2841 88bc a538 c7bd
00000090: 8217 ccbd db97 0ebd 6a6e 6cbe c2eb dc3d
000000a0: 844a d83d ba0c 0fbd c453 18bd 8dc0 1bbb
000000b0: 3944 40bd 78d0 09bd 1cb6 ebbd f185 febc
000000c0: ad0b a9bd 47a8 013c a298 c53d a00b 83bd
000000d0: 76cd e4bd 15da de3d 5787 54bd 82f6 acbd
000000e0: 3b9d e43d b61b e6ba c873 a73d a345 933d
000000f0: 2c07 a33d cb2f 2d3d 307a c53d c821 81bc
00000100: 16a4 a2bd b224 13bc 98ae 033d 6ac3 c83d
00000110: 02e0 c13c e621 703d 65b5 9a3d 5d22 61be
00000120: d16d 0dbe 3862 3c3d 4af3 84be 6804 41bd
00000130: b05c 95bd 46c7 8f3c 2699 3bbe 8970 02be
00000140: 7072 91bd 185c 6d3d 3dab cb3c 4a95 c43d
00000150: 694a 08be 95ef a53c 158a acbd 7835 28be
00000160: 1954 da3d b245 493e 73c3 9bbc 88a2 de3c
00000170: 8378 7e3d 964b 093d 8ff6 d4bc 8658 cb3a
00000180: fc99 63bc b0e7 053e 235f 94bc c1dc afbd
00000190: 18fe 213c 55b4 bebd e61c 073e 66ce b8bd
000001a0: a568 5bbd 113b 9cbd 467d 9e3d 0277 cfbd
000001b0: 0e15 a7bd 390e 01be dd55 193d fdf6 dbbd
000001c0: d2f9 ffbd 2f45 2dbe 5cff 2dbe 2952 d63d
000001d0: 494a c13d 3fed e5bd 807a d53d cee4 a3bd
000001e0: 9510 173d ee5c ac3d d28b 9cbd f66c 00be
000001f0: 23ad 61be 3cf7 40bd cdc3 b73d 5d77 1cbd
00000200: ab89 c6bd 56f3 bd3c f1c2 1cbd 0ad8 32bd
00000210: c0eb 983d df8f 9a3d b4d1 3abe 58ec 283d
00000220: d221 f8bc 44bc e0bd 7d8d a63d ed88 63bd
00000230: 7af2 91b9 d8e1 743d de4a 0ebe d2e2 963c
00000240: a81c d73d ab26 72bd bec6 b43c 9c56 c13c
00000250: 005a c33d 840d e9bb bcf7 a73d c2b1 893d
00000260: 4ffd bcbd 4a19 3dbe bcde 02be 6f12 1c3d
00000270: 589e d03d c690 c33d 2a73 08bd 5d29 d33d
00000280: 4546 e2bc 0e7f 5e3d 36a8 a5bd 61f7 9fbd
00000290: 3036 f4bd eaf7 e33d 0a8d e7bd fc79 56bd
000002a0: 98c8 31bd 37fb e0bb 24ac a4bd 7f35 0abd
000002b0: 5ca0 05be 2298 fcbc de13 2b3d ea9b b5bd
000002c0: fcd2 ba3d 3e73 753d 0b52 0f3e bf7a aabd
000002d0: 2e6b d63d 9e90 d0bd a151 f13d 288e 31bc
000002e0: d112 6abd 0157 92bd b878 d53d 9f93 efbd
000002f0: df04 34be d342 81bd 955f a8bd c87f bbbc
00000300: 9b47 653d 13c0 06bd 5575 ffbd d60a 2f3c
00000310: be00 40bc 586d 23bc 9122 a6bd 0f75 cabc
00000320: f92c a9bd 81d8 d93d 483d a33d 100e f23d
00000330: a9b3 b2bd 1cb6 a6bd e2a9 ca3d a4bb a93d
00000340: c80c f1bc 9f0f 62bd bad5 c6bd e907 a13b
00000350: 683d 61bc 6884 acbd 1c37 24bb 5078 69bd
00000360: b186 353d b914 e13d 6d1d cfbd fad2 98bd
00000370: bc17 a53c c3ae a1bd 9242 be3d 860d 023e
00000380: e260 abbc ff7f 51be 889c f8bd b3a2 8abd
00000390: 31f9 a3bd 58c0 dfbc fead 843d 6c45 c03d
000003a0: 2d24 cdbc f120 f6bd 076c 8abd c8cc c53d
000003b0: b3b4 423d 6edf a93d 39b8 06bd 1699 f53c
000003c0: b9b3 dbbd b359 3cbe f1a3 123d 65a3 a83c
000003d0: 21ae a7bd 4b1f b83d 9649 343d 3686 c13d
000003e0: 3d20 00be 44e6 dabd 7d12 d2bd 1376 aebc
000003f0: d159 96bd 18ef e7bd ad12 e03b ac17 e4bd

9.bias f4 [10]
-0.046753448 0.016329702 0.087245874 0.07830957 0.093717396 -0.11579418 -0.12507454 0.09977787
0.1055343 -0.080214486
00000000: 8b80 3fbd dec5 853c f7ad b23d c560 a03d
00000010: e8ee bf3d 8025 edbd 8a13 00be 5758 cc3d
00000020: 5e22 d83d 7e47 a4bd
