result2/papper/car1/my_model.pth (torch, 883673 bytes, 8 tensors)

0.weight f4 [32, 1, 3, 3]
00000000: b213 753e bab4 913b 2262 d03e 278b c13d
00000010: 5810 153e 48bf 49be 4f84 b13e ed2f 0bbe
00000020: bee9 413e 7be0 a3be a240 04bd 6e52 b2be
00000030: 5c42 733e b5ce 57be 1614 b53e 8ae8 cb3d
00000040: ed3a 92be 7739 8dbd 6f8e 493e a908 5cbe
00000050: d0ee 82be 6eb8 0abe 2e96 5bbe 5578 7bbe
00000060: cbb2 043e 74a1 203e 68e7 a53e 90ff 8dbe
00000070: af4a 84be c8c0 37be 94d0 fc3d c872 13bd
00000080: 76aa 00be d0f3 42be 26b9 32be 64a4 b43d
00000090: 9b5c b7be 8cf1 23be ff5c 16be f950 43be
000000a0: 4aa5 973e a805 88be 69d9 273d 125b ca3e
000000b0: 287a 383e 706f f2be ec20 dbbe ae27 55bc
000000c0: 2b47 973a c1d2 323e 13ff 08bc a814 a83e
000000d0: af8e 9a3d 736d 553e dad8 55be 14eb c93e
000000e0: 6fdf b93e c480 7c3e b4da de3e 1fca a63e
000000f0: c64a b23d f5c6 603d 6a7c d63e 1bad 89be
00000100: 7b04 a6be cc75 dabd 06c3 babd 5bf4 74be
00000110: 60f8 7cbd a89d 71be 5d8a 983e 987a 6ebd
00000120: 6ba8 5ebd 1d7b b5be 0795 81be c736 0abe
00000130: 8b5d 05bd b1e1 e13d cddb d7bd 3538 d43e
00000140: bd75 553e a369 abbe 6154 2e3e 53fe 1dbe
00000150: bc68 cfbe 7fda 53bc de16 7bbd 5707 b93e
00000160: 5128 9b3e ac8c 81be fe11 f6bd 2ea0 5bbd
00000170: c61d a2bd a521 37be a569 3e3e fa97 8abe
00000180: d539 313d baf9 013d fd77 933e 559c 3c3e
00000190: 2a26 ebbc 2bfe 003d ad47 d4bd f0e5 693d
000001a0: f23b e43d 2060 1bbc e321 b0be e2d3 b33e
000001b0: ff9e 48bd 46dd aa3e 98b8 833d c8af ad3e
000001c0: c9cc bf3e 1ce0 22bd 8790 a23d 46af 963e
000001d0: 87d6 41be ecd9 b13e c506 ba3d 76d2 693e
000001e0: 8aa3 593b 55a6 8a3e 6245 973e 5b35 2f3e
000001f0: e9ef 8c3d 860e 853e 8349 90be 1d8a a7be
00000200: 8c83 153c 779c a0bd d787 8b3e 6789 9cbe
00000210: 84ba 18be 0c83 2d3d c84f 073d 2794 c63e
00000220: 3d9d 1cbc 1af2 8fbe 74be 02bd 140a e5bd
00000230: 6f29 a4be 300d 123e 6ef0 b63e 2ea5 88be
00000240: 7ef3 9d3e 8c05 3fbd 3721 53be 4aad 1bbe
00000250: 66a1 47bc c119 a83e ac7a ffbd 1394 6ebe
00000260: 8c53 d83d 4bda c73e f607 813e 0bb1 5f3e
00000270: 4ede fcbd e9fa 5fbd 7335 89be 8d00 583c
00000280: 9359 a0be 84bd d73d 8e67 18bc 6286 9f3e
00000290: 1ee8 623e f1b4 7fbe f0a5 79be 4f78 c9be
000002a0: fcfc bb3d 37bf a6bd a1ac 783c 2301 a6be
000002b0: 6a2d dabe 16d6 bdbd da63 8b3e 4779 b03d
000002c0: e1a8 d23d 5f64 85bd 95c5 2e3d 5118 a13e
000002d0: d3b8 cd3e a6eb 3b3e 2c92 bf3e 3d29 b83e
000002e0: d1ec 653e 75b6 9b3e db8c 883e 34cf 51be
000002f0: f357 c03d 2242 003d f0df 7f3e 5bbd d73e
00000300: 01d7 a13e 2ecb 8e3d 6294 a93e fcdf 7dbd
00000310: 43f7 dc3d db5c 69be 6cbe 9abe 91cb 95bb
00000320: 48de b13d a0b3 3c3c eec1 993e 1342 503e
00000330: 5d96 99bd aa40 83be ff04 4ebe 36d0 30be
00000340: ec7e 773d e3ae b23e 116d 7cbd 0528 98be
00000350: dcea 48be 8952 253e 05bb 4a3e 9af8 22be
00000360: 87d9 2a3e 6af2 c33e f135 b33d bafd 103e
00000370: daf0 8e3e 4f4c 1b3e 61f6 59bd 0769 b63e
00000380: b176 773e 1443 183e 594f 443e 7dfa ab3e
00000390: 8118 743d cc58 cf3e 1ce8 d1bd 4493 1fbe
000003a0: 4165 ce3e ac4b 8b3e 9af1 44bd 0b3e 743e
000003b0: df45 a1be 6bf5 803e 2764 2f3e 58e8 53be
000003c0: 3a15 053e cc47 b0be 7213 8d3d 7342 adbe
000003d0: 12f5 67be 19ca 8fbe 71a3 ea3d bde6 4c3e
000003e0: 8434 58be f169 413c a1d2 c13e 9585 913e
000003f0: d4c5 d13e 365f eb3d 997f 593e c4db b1bd
0.23933294 0.004446593 0.4069987 0.09450369 0.14557016 -0.19701874 0.34671256 -0.13592501
0.18936822 -0.32007203 -0.0322882 -0.34828514 0.23755783 -0.21074946 0.35366887 0.09956463
-0.28560582 -0.06895726 0.1968324 -0.21487679 -0.25572824 -0.13546917 -0.21444008 -0.24557622
0.12958829 0.1568659 0.3240311 -0.2773404 -0.2583823 -0.17944634 0.123444706 -0.035998136
-0.12565026 -0.1903832 -0.17453441 0.088204175 -0.3581284 -0.16010112 -0.14683913 -0.19073857
0.29618293 -0.26566815 0.040978823 0.39522606 0.18015349 -0.47350645 -0.42798555 -0.013009949
0.0011541595 0.17463209 -0.008361596 0.3282826 0.07546746 0.20842533 -0.20883504 0.39437163
0.3630328 0.24658495 0.43526232 0.3257608 0.08705668 0.05487724 0.41891795 -0.26889881
-0.32425293 -0.10666999 -0.09119229 -0.23921339 -0.061760306 -0.23595297 0.29793063 -0.058222383
-0.054359835 -0.3544549 -0.2530901 -0.13497458 -0.032559913 0.11029375 -0.105399705 0.41449133
0.20845695 -0.33479032 0.17024375 -0.15429048 -0.40509593 -0.0129305115 -0.061301105 0.36138412
0.30304196 -0.25302637 -0.120151505 -0.053619556 -0.07915835 -0.17883928 0.18594988 -0.27069074
0.043268044 0.0317323 0.2880248 0.18419011 -0.028704721 0.031492393 -0.103652336 0.05710405
0.11144246 -0.009483367 -0.34400854 0.3512259 -0.048979755 0.33371943 0.06431693 0.33923173
0.37460926 -0.03976451 0.07937723 0.29430598 -0.18929492 0.34736574 0.090833224 0.2283419
0.003320905 0.27080026 0.29545122 0.17110197 0.06881697 0.25987643 -0.28181085 -0.3272256
0.0091256015 -0.07842343 0.27252075 -0.3057358 -0.149149 0.042361304 0.03303507 0.38784906
-0.009558973 -0.28114396 -0.03191991 -0.11183563 -0.3206286 0.14262843 0.35730308 -0.26688522
0.30849832 -0.04663615 -0.20618139 -0.15202823 -0.0121844765 0.3283215 -0.1247457 -0.23298673
0.1056281 0.39033732 0.25201386 0.2184488 -0.12347089 -0.054682646 -0.2679859 0.013183725
-0.3131834 0.10534194 -0.009302033 0.31157213 0.22158858 -0.24971367 -0.24379706 -0.393496
0.09179112 -0.0814194 0.015177877 -0.32422742 -0.42612773 -0.09269349 0.27224618 0.08616882
0.10286117 -0.06513285 0.042668898 0.31463864 0.40180072 0.18351611 0.37416208 0.35968962
0.2245362 0.3041264 0.26669964 -0.20489198 0.09391775 0.03131307 0.24987769 0.42136654
0.31609347 0.06972347 0.3312102 -0.061981186 0.10789349 -0.22789328 -0.30223405 -0.004571386
0.08684975 0.011517435 0.3003077 0.20337705 -0.07499383 -0.25635272 -0.20119093 -0.17266926
0.060423777 0.34899053 -0.06162745 -0.29718032 -0.19620842 0.16144766 0.19797905 -0.15915146
0.16684543 0.38270885 0.08750523 0.14159289 0.2791813 0.15165828 -0.05321348 0.35627005
0.24166371 0.14869338 0.19170894 0.33589545 0.05959368 0.40497434 -0.102493495 -0.15583521
0.40311626 0.2720617 -0.04808197 0.23851793 -0.3149862 0.2518724 0.17128049 -0.20694101
0.12996379 -0.34429777 0.068884745 -0.3383976 -0.2265208 -0.28083876 0.11456955 0.20009895
-0.21113783 0.011805044 0.3785601 0.28422228 0.40971243 0.114927694 0.21240081 -0.08684495

0.bias f4 [32]
00000000: 7d2e a0be 4938 3fbe 4f9d 843e 2061 4fbe
00000010: bf98 5a3e 75e6 063e 8144 3c3e 764d 84be
00000020: d9db 5c3e 9219 b03e 203b 2d3e e93b 03be
00000030: c87f 03be 34a7 97be eb23 98be 307d f83d
00000040: 4940 753c 0dbb 4dbe 07e6 a43e b176 b73d
00000050: 03bc 8f3e 9644 363d fe29 64be 6b76 ba3d
00000060: 4d56 80be b86a 9cbd 54b2 96be b897 7f3d
00000070: 5fe6 6a3e 785a 3c3a 14fe 56be 2163 44bd
-0.31285468 -0.18673815 0.25901267 -0.20251894 0.2134733 0.1317385 0.18385507 -0.25840348
0.2156824 0.3439451 0.16917086 -0.12815823 -0.12841713 -0.29619753 -0.29714903 0.121332526
0.01496894 -0.20090885 0.32206747 0.089581855 0.2807313 0.044499002 -0.22281644 0.09104618
-0.25065842 -0.076375425 -0.2943293 0.06240055 0.22939442 0.0007185112 -0.2099536 -0.0479461

3.weight f4 [64, 32, 3, 3]
00000000: 6821 2f3d d546 79bd b0ef a43c 92b3 df3c
00000010: 0dcf 833b 695f d83c 7cda fa3c 2f24 d73c
00000020: 835e 103d 9a7e ed3b 1b6f b1bc 8bfc 5ebd
00000030: e656 30bd 910a 633d c6a2 423d 3b81 3abd
00000040: eb4e 943c bc38 31bd 7797 e83b a2e3 8b3c
00000050: 8200 99bc 3571 17bb 3c18 c0bc 530e 173d
00000060: eacf e1bb a2b3 49bd 50dd 3dbd 6b4d 403d
00000070: 67d0 2c3d 9661 53bd fa0f 46bd f816 a13b
00000080: d6f1 01bd b03f a9bb 794c 403d e781 4ebd
00000090: d224 c6bc 173d c0bb 4abc d0bc 9436 bf3c
000000a0: 6ab7 d5bc 4bed e63b 1a5c e5bc 4f40 623c
000000b0: b5b2 3cbd 99fb ebbc acdf eebc 06b2 493c
000000c0: 5176 01bc 33e5 df3c cc3a b2bc 45d4 99bc
000000d0: 51c2 79bd a688 d8ba d829 44bd 08bc 2c3c
000000e0: 3909 e13c a679 79bd edba 903b 765d 37bc
000000f0: 46f7 bb3c 18ac 0e3d 0a2f 64bc 74db 42bd
00000100: 2421 98bc 3894 813b 501e 5b3b a797 12bd
00000110: b103 1e3d f206 32bd 6d5f 09bd 41f6 123d
00000120: 20eb 68bc 48ad 7fbd 9181 3dbc 1243 87bc
00000130: 7c97 2a3d e387 463c 85dd 8c39 b8cb 48bc
00000140: 38fb 523b b38c 06bd babc 21bd b969 91bc
00000150: 224a 123d 1ec4 edbc e1bd 42bd 26bc 343d
00000160: 8971 a03c 869f d7bc aa7c 5139 df82 09bd
00000170: 5bb3 413d 044a 13bd 219b 383b 29e1 ea3a
00000180: 3b32 58bd dff3 8f3c 7797 7c3c aae3 353d
00000190: 9a0d 283b da2d d73c 33a6 05bd 07b0 e53c
000001a0: 6b2f 0abd 5a22 823c b245 1fbd c148 9f3b
000001b0: cce1 b63c a3a6 0dbd 94c0 36bd 16ab 54bc
000001c0: 3c61 8cbd 8404 263c a0bd 17bd 83ba dd3c
000001d0: 895d cb3c 5e0a 6abd 8d95 1d3c d5b9 14bc
000001e0: 9ce5 133d 6d7e 08bd 6cc1 6abc fecb 03bd
000001f0: 983b 20bd 041b 0ebd b13d 053d 8a5d ec3c
00000200: 52fd 37bd b803 6dbc 31ca 3a3d 7c9d 61bd
00000210: 7932 513d d416 8abc ec0b bebc e8dc 24bd
00000220: e6bc 5d3a 12b3 e23c 084e 78bc 6fb1 7b3b
00000230: 8562 b83b b0ce 48bd 6458 5abd 41e8 06bc
00000240: 75be ab3c dcb1 333c f938 08bd ec67 58bd
00000250: 1b6e 16bd 3349 053d 4bb8 133d b302 1a3d
00000260: e4aa 043d 514a 09bd 52ee 62bc b8c3 1a3d
00000270: 9c50 30bd 3bc9 d0bc 1a5c 61bd 577b f2bb
00000280: a652 4b3d ffbb 61bb d1df 4bbd a2b8 5e3c
00000290: ea48 383d 77cb 033d 5ea1 3dbd 3893 073d
000002a0: cba4 58bd 3dce 2abc 07d3 60bd 6af6 123d
000002b0: a5f5 073c ea1a 383d dab5 bdbc 539a 67bb
000002c0: ac96 4bbd 5018 013d c1cd 25bd c3b8 55bd
000002d0: 3314 943c ff52 873c 1066 8cbc 3303 b43c
000002e0: 3250 0ebd 7b82 1fbb f862 b03c 0572 5dbd
000002f0: ad8f 15bd 2892 e83c e239 363c 0c1b 1abc
00000300: ef8a 9ebc a2b2 bb3c d66c 09bd bbfe b4bc
00000310: 7613 8cbd 1662 73bd f881 8c3a 9088 a73c
00000320: 32fb b63c 40e9 8d3c 5b1d ad3c caa4 8c3c
00000330: 7840 3a3d 06e6 5f3d 1b2c 1abd 20be 06bc
00000340: c26f 60bd 1c59 25bd c9f9 943c ab4a c33c
00000350: 8d46 7dbd c6dd b0bc e0b4 90bd d7e7 fc3b
00000360: 763d 68bc b34b 13bd 889a a63c 78c6 86bd
00000370: 532c 163d b664 41bd 37ac 153c ba95 553c
00000380: 458e d73c 3f5f 9bbc 3aa6 84bd 6d49 fd3c
00000390: 4a9f 33bc 09fc 1bbd b0d0 38bc 6acf 39bd
000003a0: 6718 e6bc ed2c e13b e331 44bd 7a30 113d
000003b0: 1e57 68bd 1c61 78bc 3197 49bd a48f 0abc
000003c0: e829 213d b255 f1bc bda7 5bbd e520 9b3c
000003d0: 9aea 4a3d 12ec 68bd 7c84 203d 1863 0c3d
000003e0: 5a02 2e3d 96af c33c d708 88bd 41d6 79bd
000003f0: 8736 433c 272e f03c 1840 16bd b22e 1c3d
0.042756468 -0.060858566 0.020133823 0.027307305 0.004022485 0.026412683 0.03062176 0.02626237
0.035246383 0.007247758 -0.021659425 -0.054440062 -0.043051623 0.05543 0.047518514 -0.0455334
0.018104037 -0.043266997 0.007098134 0.017076317 -0.018677 -0.0023108248 -0.023449056 0.036878895
-0.0068912404 -0.049243577 -0.04635364 0.04694883 0.042190935 -0.051606737 -0.04835508 0.004916068
-0.031724773 -0.005165063 0.04694793 -0.050416853 -0.02418748 -0.0058666575 -0.025480408 0.023341455
-0.026088435 0.0070473305 -0.027998019 0.013809278 -0.046068866 -0.028806495 -0.02915939 0.0123105105
-0.007901744 0.02733097 -0.021756552 -0.018777976 -0.06097633 -0.0016520217 -0.047891468 0.010542877
0.027470218 -0.06090703 0.0044168145 -0.011191716 0.022945058 0.03483209 -0.013927231 -0.047572568
-0.01857049 0.0039544366 0.0033434816 -0.03578916 0.03857774 -0.043463655 -0.03353827 0.035879377
-0.014216214 -0.062421113 -0.011566536 -0.016511474 0.041648373 0.012117359 0.00026867926 -0.012255602
0.0032193195 -0.032849025 -0.039486624 -0.017750608 0.03571523 -0.02902418 -0.047544364 0.044124745
0.019585388 -0.026321184 0.00019978234 -0.033572074 0.047290187 -0.03595926 0.0028168636 0.0017919886
-0.05278228 0.017572341 0.015416971 0.04440657 0.0025642873 0.02626698 -0.032629203 0.028038038
-0.033736628 0.01588552 -0.038884826 0.004860968 0.022324465 -0.034582745 -0.04461725 -0.012980243
-0.068544835 0.010132913 -0.037046075 0.027066475 0.024824874 -0.057138793 0.009618175 -0.009077509
0.036107644 -0.033323694 -0.014328342 -0.032176964 -0.039119333 -0.034693733 0.032529537 0.028853197
-0.04491932 -0.014466219 0.04560298 -0.05508183 0.051073525 -0.016856588 -0.023199044 -0.040249735
0.0008458629 0.027673278 -0.015155323 0.003840532 0.005626979 -0.049025238 -0.053306952 -0.008234085
0.02096484 0.010967698 -0.03325746 -0.052833483 -0.0367261 0.03254051 0.036064427 0.03760023
0.032389536 -0.03351814 -0.013850765 0.03778431 -0.043045625 -0.02548658 -0.055019476 -0.007399957
0.049639367 -0.003444433 -0.049773995 0.013593825 0.04499141 0.03217646 -0.04629647 0.033099383
-0.052891534 -0.010425148 -0.05488875 0.03587953 0.008298312 0.044947542 -0.023158003 -0.0035339787
-0.04970424 0.031517327 -0.040479425 -0.052178156 0.018076038 0.016519068 -0.017138511 0.021974182
-0.03474445 -0.0024339247 0.021531567 -0.054063816 -0.036513973 0.028390005 0.011122199 -0.009405863
-0.019353358 0.022912327 -0.03355106 -0.022094121 -0.068396494 -0.059419714 0.0010719886 0.02045086
0.022336576 0.017323136 0.021132162 0.017168421 0.04547164 0.054662727 -0.03763972 -0.00822404
-0.05479408 -0.040368184 0.018185513 0.023839315 -0.06183486 -0.021590125 -0.07065749 0.007718067
-0.01417481 -0.035960864 0.020337358 -0.06580824 0.036663365 -0.047215186 0.0091352975 0.013036186
0.026312957 -0.018966315 -0.06477018 0.030918801 -0.01096327 -0.038082156 -0.011280224 -0.04536382
-0.028087808 0.0068718106 -0.04789914 0.03544662 -0.056723706 -0.015159871 -0.049216453 -0.008457098
0.039346606 -0.029459808 -0.053626765 0.018936584 0.04954014 -0.05686576 0.039188847 0.03427419
0.04248271 0.023887437 -0.06642311 -0.060995344 0.011914856 0.029318882 -0.03668222 0.03813047

3.bias f4 [64]
00000000: 9748 30bd 1ea2 4ebd f28e 5bbc 7e4a 163d
00000010: b2d8 173c 1ce7 c33b d2b2 573d fbaa 253d
00000020: 081c 42bd b28e 613c 6d81 51bd adcf d93c
00000030: 1715 8abd bc13 093d 8bf2 a43d 5253 31bd
00000040: 900f afbc 42ac ca3c 7ad8 6e3d 78e1 a0ba
00000050: 1b73 e83c d020 3bbd da01 89bc adbf 2bbd
00000060: 6767 c13c cfe4 e7bb 0bcb 1abd f1c7 013d
00000070: 49a0 81bd 25da 433c 27a5 8bbd 1c5d 953c
00000080: 878b 3d3d 073e 89bd 196a 023d 59c3 1fbd
00000090: 1150 2b3d 865e a33c 0ff4 69bd fab2 723b
000000a0: 6c81 f13b 1eef 2f3d c1ca 47bd ddd3 ce3d
000000b0: cb6e 113d c7ed e43c 064b 23bd 3aed 1dbc
000000c0: d0dd 633d 66ba 33bc 31a5 15ba 2624 3abc
000000d0: d1f2 6fbd af9f 03bb e7a0 1bbd 3b79 313c
000000e0: f645 2bbc 0f8a 3f3d a1ea 863c 89dd 5cbc
000000f0: 135f e33c cdd2 20bd 803c 2c3d c5d4 1ebd
-0.043037977 -0.050447576 -0.01340078 0.036692135 0.009267973 0.005978478 0.05266077 0.040446263
-0.047390014 0.013766931 -0.05114882 0.026588285 -0.06742304 0.033466086 0.08054074 -0.04329235
-0.021369725 0.024740342 0.058311917 -0.0012274226 0.028375199 -0.04568559 -0.016724516 -0.041930843
0.023608876 -0.0070768367 -0.037791293 0.03168482 -0.063294 0.011953865 -0.0681861 0.018232875
0.04627564 -0.06701284 0.031839464 -0.039004657 0.041824404 0.019942533 -0.057117518 0.0037032948
0.0073701646 0.04295265 -0.048777346 0.100990035 0.03550605 0.027945412 -0.03986647 -0.009639079
0.05563146 -0.010969734 -0.00057085144 -0.0113611575 -0.058581177 -0.0020084193 -0.037995245 0.010832126
-0.010453692 0.046762522 0.016469302 -0.0134805525 0.027755296 -0.039263535 0.042049885 -0.03877713

7.weight f4 [64, 3136]
00000000: 1c77 a4ba f901 063c 37af 1b3c d8ea 3abc
00000010: 3eca 343b f675 52bc 8152 4a3c a463 1d3c
00000020: 76bf 843c 9efc 2a3c 0f05 efbb 7732 933c
00000030: 37d5 b83b f7c2 c93b 86b2 2b3c 2221 53bb
00000040: c197 4bbc 2716 43bc 91cb ebbb 0da0 833c
00000050: 29a3 65ba e941 94bc 06a8 d53b 994e 35bc
00000060: 5827 c6bb 8f55 303a 1d9b be3b e4b4 65bb
00000070: 392b 163c 4876 ad3c 3d6a df3a 724b 553c
00000080: 79e4 96bc 252b 35bc a54e acbb 6dba 84ba
00000090: 8e34 e139 6a31 003c 963b 52bc 5ad5 b93b
000000a0: 35b8 35bc bb63 0e3c e751 cc3a c2da 673b
000000b0: 94f9 40bc 6317 953a 6fb2 0dba cab1 883c
000000c0: 3e7b 40bc 3f25 8a3c b81d 8ebc 565b 383c
000000d0: 248d ae3b 4238 683c 809f b8bb dcf0 553b
000000e0: e77e 883c 326f 85bb 103b aaba c0af d83b
000000f0: a4c4 80bb bc35 9b3b a05a 203c 5cb8 d1bb
00000100: 2033 da3a 1062 533c 1ec4 22bc 9e76 183c
00000110: 1c83 373c 0098 03ba 66ee 6b3c 52dc 98bb
00000120: a0c9 90bb de46 7c3c c0ca 24bb 8a29 623c
00000130: 2ebf 613c 0016 d3ba f053 afba 5a32 643c
00000140: e080 a73b e091 1e3a 7072 293c 10b0 c5ba
00000150: 374f 02bc d3c3 803c a6ef d1bb 25cc 7dbc
00000160: 6c0e 0e3c e0fd 15ba 68d6 31bc 05fc 8d3c
00000170: 326d 5c3c f586 3bbc fa2b 783c 9412 71bb
00000180: acbb 123b bb5b a93c 249e 743c 4771 6c3c
00000190: 6bcb 443c ce7c 9e3c af97 9e3c 0fc9 203c
000001a0: 50d5 adbc 2cc3 71bb d89b cc3b 064c 9bbb
000001b0: ebc0 31bc 7dcd cbb8 7720 223c 198f 98bc
000001c0: d0a2 423c 1afc 92bc 5262 663c 7cb9 92bb
000001d0: 532f 39bc b2d1 223c 0086 7fbc e6ef 9a3b
000001e0: 2710 29bc 1a25 0abc dff8 b8bb 0285 8ebb
000001f0: dbcb 533c 438e 4ebc 687c be3b 0699 84bc
00000200: d336 c5ba 4b0a 50bc 90c3 0f3b 0c20 51bc
00000210: e9f8 01bb 19c3 47bc b5da 9d3c b61e d3bb
00000220: 8a19 6bbc 1204 ab3c 94b4 5c3c 3a3d 40bc
00000230: e016 843b 6358 ffba 7987 963c 4e46 803c
00000240: dfbc 3cbc 4236 103c a2e9 0e3c c592 7f3b
00000250: 3939 023b c36f b239 f18b 91bc 40e4 9e3c
00000260: 18f7 4cbb 1649 eeb8 afbe 923b 43fa 073c
00000270: 7427 4a3c 9ea6 9c3b d5f5 41bb 9285 7fbc
00000280: 4841 83bc e196 713c be6b 253c 67fc aebb
00000290: 2976 c2bb 3a40 0a3c 44b8 5cbc d4fd 57bb
000002a0: 9ec9 8fbc 7f66 843a b996 05bc 3479 d83b
000002b0: 248d 4a3c 1e39 863c 6050 733c 11ad 8e3c
000002c0: 2cd0 473c 7336 3dbc fdee 0cb8 c1e5 eabb
000002d0: c402 eb3a 325d 22bc 2cbe a03b ee3e ac3c
000002e0: 82fc 883c 4afc e5ba 5e76 46bb 62cd 7d3b
000002f0: 6d35 963c 56f7 2cbc 91b6 933c b032 373c
00000300: 9f28 5a3c fb51 d23b ff93 343c ef1c 8c3b
00000310: 6227 48bc 0055 fabb 074e 773c 68e2 f63b
00000320: c9c9 383c 6215 46bc 1d8a 513c 03bd 9b3c
00000330: e997 413b 0854 a6bb 72af 093a 9140 733c
00000340: 6743 403c f0d0 9b3b a3e5 7b3c 7695 bb3c
00000350: d0ff 9a3a 31b9 df3b 3bae 1abc cb44 583c
00000360: c975 023c e1ac 0e3c 15ba 0a3c 4315 0ebc
00000370: ce79 8bbb 23c0 f33b 59b1 623a 14d3 dcbb
00000380: 1599 463c 34e5 943c cc78 e73a 20b1 a13b
00000390: 6cbf 6c3c f848 a139 2a04 47bc 2891 ba3b
000003a0: 72dd dc3c 20b4 96bc a852 0cbc f682 d3ba
000003b0: b132 52bc fa12 ebbb 4b62 8abc fdfa 923b
000003c0: 094b 2d3b 4ba1 fbbb 62d3 673c 025c 97bb
000003d0: c66b 91bb d8a9 1c3c c7c0 123c 18f0 edbb
000003e0: 2ae5 f8bb af4c 683c d912 2c3b 9d1d 49bc
000003f0: 0a47 54bc 9c21 84bc 13ef 87bb 7a16 113b
-0.0012547704 0.008179181 0.009502224 -0.01140853 0.0027586366 -0.012845507 0.012348772 0.009606276
0.016204577 0.010436205 -0.007294304 0.0179684 0.0056406516 0.006157275 0.010479575 -0.0032215794
-0.012426318 -0.011907137 -0.007195898 0.01606753 -0.00087599695 -0.018097835 0.006520274 -0.011066102
-0.0060471706 0.00067266164 0.005816831 -0.0035050446 0.0091655785 0.021174565 0.0017045211 0.013018476
-0.018419491 -0.01105765 -0.0052583986 -0.001012636 0.000429545 0.007824281 -0.012831589 0.0056711854
-0.011091282 0.00869077 0.0015588374 0.0035378193 -0.011778254 0.0011374768 -0.0005405312 0.016686339
-0.011748133 0.016863463 -0.017348155 0.011252245 0.005326884 0.014173569 -0.0056342483 0.0032644784
0.016662074 -0.0040720934 -0.0012987573 0.006612748 -0.0039296914 0.0047366302 0.009787232 -0.006400151
0.0016647317 0.012901798 -0.009934453 0.009305624 0.0112006925 -0.0005019903 0.0144001 -0.004664936
-0.004418567 0.015397755 -0.0025145262 0.013803849 0.013778491 -0.0016104579 -0.0013376456 0.01392802
0.0051117986 0.0006048959 0.010342225 -0.0015082378 -0.007953457 0.015718376 -0.006406742 -0.015490566
0.008670431 -0.0005721729 -0.010854341 0.017332086 0.013453769 -0.0114457505 0.015147204 -0.0036784755
0.0022389693 0.020673623 0.014930282 0.014431304 0.012011389 0.01934662 0.019359438 0.009813561
-0.02121988 -0.0036890013 0.006244164 -0.0047392873 -0.010849218 -9.7180695e-05 0.009895436 -0.018622922
0.011879638 -0.017942477 0.014061527 -0.004477678 -0.011302787 0.009937691 -0.015595913 0.004728305
-0.010318792 -0.008431697 -0.005644902 -0.004349352 0.012927021 -0.01260716 0.00581317 -0.016186249
-0.0015046246 -0.012697767 0.0021936633 -0.012763988 -0.00198322 -0.012192511 0.019269327 -0.00644287
-0.014349351 0.020875964 0.013470788 -0.011733348 0.004031047 -0.0019481297 0.018375145 0.015658524
-0.01151964 0.008801999 0.008722695 0.0038997394 0.0019870533 0.00034034075 -0.017766925 0.019395947
-0.003127521 -0.00011362338 0.0044782977 0.008299413 0.012338508 0.0047806045 -0.002959599 -0.0155958105
-0.01602234 0.014745445 0.0100964885 -0.0053401473 -0.005934496 0.008438164 -0.013471667 -0.003295769
-0.017552193 0.0010101347 -0.008153611 0.0066062454 0.012362752 0.016384657 0.014850706 0.017416509
0.012195628 -0.011548626 -3.3601176e-05 -0.007168502 0.0017929901 -0.009909915 0.0049054828 0.021026101
0.016721968 -0.0017546501 -0.0030282955 0.0038727154 0.018336022 -0.010557016 0.01803139 0.011181518
0.013315349 0.0064184642 0.011021613 0.00427591 -0.012216421 -0.0076395273 0.015094287 0.007534314
0.011278578 -0.012090059 0.012789276 0.019011026 0.0029540008 -0.0050759353 0.00052522786 0.014846937
0.01173482 0.004755132 0.015374574 0.022898417 0.0011825506 0.0068274965 -0.009440954 0.013199995
0.0079626525 0.00870821 0.008467217 -0.008672061 -0.0042564636 0.007438676 0.00086476427 -0.0067390297
0.012121459 0.018175699 0.0017659902 0.004934445 0.014449935 0.0003076268 -0.012146989 0.0056935735
0.026961062 -0.018396437 -0.008564629 -0.0016137052 -0.012829469 -0.007173893 -0.016892573 0.0044854865
0.002644243 -0.0076791397 0.014149519 -0.0046191225 -0.0044378964 0.009561978 0.0089570945 -0.0072612874
-0.007595678 0.014178439 0.0026256351 -0.012275127 -0.01295639 -0.016129307 -0.004148373 0.0022138641

7.bias f4 [64]
00000000: 834d 5cbc b204 04bc 9870 3bba f90b 0d3b
00000010: 40a4 babc aa97 85bc f100 a0bc 437e 2b3c
00000020: 1883 1f3c d840 eebb 996a bbba d7cd 353b
00000030: 1c9d 80bb 0acd 8ebc 00a4 b93c 7ee0 93bc
00000040: 292d b5bc d5ab 8f3c 1942 20bc 7281 ae3b
00000050: 7f1a c1ba 1a31 4cbc c317 a5bb 06eb e73b
00000060: f27d a73c acd3 12bc e405 faba 4d67 fa3b
00000070: e6dc ed3b 6c2c a0bc 855d 09bc a56f 3ebc
00000080: d128 733c 4d2a 59bc 9065 bb3b bd86 d3bb
00000090: 1562 96bc 59fe 313a b4de bebc d778 afba
000000a0: 8856 2e3c 2baa 00bb e084 27bc 7365 e4bb
000000b0: 65dc 093c 513d ba39 b0f8 94bc 2c5b 613c
000000c0: 690e 09bb f4f9 c2bb eed2 aa3c e0a5 3cbb
000000d0: a637 073a 3ddc de3c 64d9 6abb 3630 03bc
000000e0: 75f9 91bb 075a 163c dfab 313c 25fa f83a
000000f0: d0b9 a0bb 3063 92bc 2de2 7abb a7b4 d03b
-0.013446215 -0.00805776 -0.00071502617 0.002152203 -0.022783399 -0.01630767 -0.019531699 0.010467115
0.009735845 -0.0072709136 -0.0014298736 0.0027741098 -0.003924979 -0.017431755 0.02266121 -0.018051382
-0.02211626 0.01753799 -0.009781384 0.0053254897 -0.0014732628 -0.012462879 -0.005038233 0.0070775775
0.020445798 -0.008961599 -0.0019075242 0.007641709 0.007258999 -0.019552432 -0.008384113 -0.011623298
0.014841274 -0.013254714 0.0057188943 -0.006455271 -0.018357316 0.0006789915 -0.023299553 -0.0013387454
0.010640748 -0.0019632678 -0.010224551 -0.0069701015 0.008414363 0.0003552237 -0.01818499 0.013754647
-0.002091313 -0.005950207 0.020852532 -0.0028785393 0.00051581336 0.027204627 -0.0035835141 -0.0080071
-0.0044547864 0.009176738 0.0108442 0.0018995447 -0.004904963 -0.017869562 -0.0038281784 0.0063691917

9.weight f4 [10, 64]
00000000: 0049 e13d d4f4 783d b131 cdba 8add 93bd
00000010: c095 c9bb 457f 9e3d f86d b13d c191 df3a
00000020: 98e6 8cbc 5065 013d 3715 1fbd 3d00 88be
00000030: c2b9 aabd 31c4 57bc a8fd 673d 4eac 723d
00000040: b8d7 c83d be5c c53d bfac c03d 0cbc 943d
00000050: 4c0a 87bc 8ac2 d73d 3a14 f33d 5007 b53d
00000060: 03dc 39be 1c8e 233e 3b5a 613c 03de a2bd
00000070: 2227 dabd 5a98 50bb 8c7e cb3c 315b aabd
00000080: b077 b5bc c867 273e 324f 84bd f77a d43d
00000090: d689 acbd 8129 103e 8512 30bd 9619 29bb
000000a0: 1fbd 9cbb 03ea 2fbd 9890 233d 2af2 bcbd
000000b0: e983 de3b d23e 5a3c 1dad 2f3d f881 2fbe
000000c0: aa80 b03d 0955 f03d c7d3 99be 5f7f c73d
000000d0: fa9b 1cbe c760 28be fafb 86bd 1cc7 4ebd
000000e0: b19e 4dbe 1efb c6bd 6edc 54bc db64 173d
000000f0: 2555 853d 0f64 003d f453 9c3b efee af3d
00000100: 7126 83bc 4d88 2fbd 1b92 9c3d 80a9 d53b
00000110: 5c97 713d 1a89 08bd 52b6 74bd 44f3 b33d
00000120: af38 cc3c 5461 de3d e110 66bd 2639 843d
00000130: 14dc cdbd 4024 583d db3a ec3d 9b2c 35be
00000140: bbb0 68bd 8598 a43d af2d 03bd 21a0 253c
00000150: 6346 cbbd 7f70 b5bd b628 10be 2b7c 1ebe
00000160: 933a 193e 1cc7 42be 1754 d73c 4989 90bd
00000170: cb31 56bd f279 813d 5f48 543c 50e0 b8bd
00000180: 6a55 353d a828 0c3d a835 253e 3074 023d
00000190: 8731 ef3d 340b 5abe 34a5 bfbd 58f3 98bc
000001a0: 9884 ed3d d057 adbd 27a8 253d d24e 85bc
000001b0: dc36 dbbd c8fd 11bd eed2 313d e36a fd3d
000001c0: f45c f7bd ecd7 43bd 4d57 5e3d dddf 91bd
000001d0: 9c00 1f3d 86e3 163e e002 8cbc 706a 19bc
000001e0: 789b 27be 0afa e0bd e139 d8bd 943b f9bc
000001f0: 73c8 503c fb97 7c3d 14f4 88bd 09ee 22bd
00000200: 2d35 75bd 1da8 e03d a79c 7cbb cdc1 65bd
00000210: c84e 52bd e869 1a3d 7aa0 1a3d 6500 4b3d
00000220: 2f72 6b3d 38aa 86bc 6ea0 afbd 61f6 843d
00000230: ef4d babd 4ab9 babd 71f9 febd 35ce ba3d
00000240: 1f43 86bd fbb0 12bd f410 7b3d 094f 3b3b
00000250: b985 943d c2d3 dabd 25f1 f93d e933 853d
00000260: 7359 853d e58e 21bc ec55 04be be26 6ebd
00000270: 9674 aa3d 4aa2 ebbc 31b8 e63d ff2d 503d
00000280: bb02 00be 2110 263c 5a14 2bbd 8537 1a3e
00000290: 1c66 afbd d592 c33d 316a 45bd e64d 5b3d
000002a0: 2ee5 9f3d 955c d1bb d681 873d 23b1 abbd
000002b0: b8ad b43d c084 53bd 53d2 423c c07d 1dbe
000002c0: e8e4 de3d fb8e 9ebd 6585 d03d ee11 af3d
000002d0: dd60 8e3c 4eec 10be 5f00 97bd 8bb2 c33c
000002e0: 1dcb d3bd 0a0c 10bc 7b64 aabd a611 e0bd
000002f0: 5745 d93d bf31 61bd 409b 2fbe c9a4 e83c
00000300: 54ea c33c 6af2 edbd bda9 c8bc 33d6 e0bd
00000310: 0eeb 8bbd 80a2 40bd 993c 98bd da21 a9bd
00000320: 4059 173d a754 833c 21aa bcbc f792 febd
00000330: 8d7d 723d 16c9 4f3d c099 96bd 3fc9 f3bd
00000340: aa55 633c e910 433d 8027 953b 327b 393a
00000350: b856 a8bd c59f d6bd c887 07be dc86 a5bd
00000360: 2151 d63d ce79 97bc e2d6 8dbc d782 ca3d
00000370: 8d1f 023c faed 9d3d 0595 dd3d 2a73 4a3c
00000380: be45 c93d e859 7bbd 9970 8f3c 988f 18be
00000390: 48c5 d73d 833e da3d 5d88 4a3d 0621 37bd
000003a0: 891d 333d e93f 15bd 2633 dbbd 2db3 ac3c
000003b0: a943 98bd 1449 963d d796 df3c 0e0c 3ebe
000003c0: 59a9 583c ccc0 ca3d f9d3 b53c 699c 9c3d
000003d0: 0bd1 703b f094 28be 5b12 38bd 0a62 e8bd
000003e0: b13b 5c3d 6a38 ecbd 9e75 023e a11f d03d
000003f0: f51b d0bd e450 e43d 9368 023e 9728 5c3c
0.11000252 0.06078036 -0.0015655068 -0.072199896 -0.006151885 0.077391185 0.08663553 0.0017056988
-0.0171998 0.03159076 -0.03883859 -0.26562682 -0.08336212 -0.013169334 0.05663839 0.059246354
0.0980677 0.0963683 0.09407949 0.072624296 -0.016484402 0.10535152 0.11869092 0.088392854
-0.18150334 0.15972179 0.013754423 -0.079525016 -0.10651995 -0.003182909 0.024840616 -0.08318175
-0.022151798 0.16348183 -0.06460418 0.10375016 -0.084247276 0.14078332 -0.04298641 -0.0025802604
-0.004783287 -0.04294778 0.039932817 -0.09225877 0.0067906273 0.013320642 0.042889703 -0.17139423
0.08618291 0.11734969 -0.30044386 0.09741091 -0.15293875 -0.16443168 -0.065910295 -0.050482854
-0.20080067 -0.097158656 -0.012992008 0.036961418 0.06510381 0.031345423 0.00477075 0.08590495
-0.016009541 -0.042854596 0.07645055 0.00652045 0.05898224 -0.033333875 -0.059744187 0.087866336
0.024929373 0.108584076 -0.05616844 0.06456213 -0.10051742 0.052768946 0.11534663 -0.17692797
-0.05680917 0.08036903 -0.03202599 0.0101089785 -0.099255346 -0.088593476 -0.1407803 -0.15477054
0.1496375 -0.19021267 0.026285214 -0.07057435 -0.05229358 0.06322087 0.012956708 -0.09027159
0.04427091 0.03421846 0.1613375 0.031849086 0.116793685 -0.21293336 -0.09357682 -0.018670723
0.11597556 -0.084640145 0.040443566 -0.016272936 -0.10703823 -0.035642415 0.04341405 0.12373903
-0.12078276 -0.04781334 0.054282475 -0.07122777 0.03881894 0.14735231 -0.017091215 -0.009363756
-0.163679 -0.10985191 -0.105579145 -0.030423917 0.012743103 0.061668377 -0.06687179 -0.03977779
-0.059865166 0.10969565 -0.003854552 -0.056093026 -0.051344663 0.037698656 0.0377507 0.049560923
0.05748194 -0.016438589 -0.085755214 0.064923055 -0.09096896 -0.09117372 -0.12449921 0.09121362
-0.06555771 -0.035813313 0.061295465 0.0028581044 0.07252068 -0.10684921 0.12204198 0.06504042
0.06511202 -0.009860729 -0.12923402 -0.058142416 0.08323018 -0.028763909 0.112656005 0.050825115
-0.12501042 0.010135681 -0.041767456 0.15060242 -0.08564398 0.0954949 -0.048196975 0.053541087
0.078073844 -0.0063892105 0.06616561 -0.083833955 0.08822197 -0.051640272 0.0118909655 -0.15380001
0.10883504 -0.07742115 0.10181693 0.08548342 0.017380172 -0.14152643 -0.07373118 0.023888847
-0.10341475 -0.008791933 -0.083199464 -0.10940866 0.10608929 -0.054979082 -0.17149067 0.028398888
0.023915447 -0.116185024 -0.024495 -0.10978355 -0.068319425 -0.047029972 -0.07433433 -0.0825841
0.03695035 0.016031576 -0.023030343 -0.12430375 0.059201766 0.05072888 -0.07353544 -0.11903619
0.013875404 0.04762355 0.004551828 0.00070755475 -0.08219665 -0.10479692 -0.1323539 -0.08082363
0.10464693 -0.018490698 -0.017314378 0.09888237 0.007942093 0.07711406 0.10819439 0.012356559
0.098277554 -0.06136504 0.017509745 -0.14898527 0.10535675 0.106564544 0.049446452 -0.044709228
0.04372934 -0.036437903 -0.10703115 0.021081531 -0.0743478 0.07338157 0.027293606 -0.18559286
0.013223969 0.09900054 0.022195803 0.0764702 0.0036745693 -0.16463065 -0.04493938 -0.113468245
0.053767864 -0.11534198 0.1274018 0.10162283 -0.101615824 0.11148241 0.12735204 0.013437412

9.bias f4 [10]
00000000: 29f6 283d cfb7 5cbd 979c c33d 4a67 f43c
00000010: b7f1 02bc ad4a 883d 6382 d0bd 4aa7 c8bd
00000020: b0ca 033d 5852 d53c
0.04125038 -0.05388623 0.095513515 0.029834408 -0.0079922 0.06654868 -0.10181119 -0.09797533
0.03217572 0.026040241
